chatbot/resource/pthFile/high.pth (torch, 5471 bytes, 6 tensors)

l1.weight f4 [8, 58]
00000000: 1abe b23d 1a95 cf3e f015 c93e 63fe 96be
00000010: 7aa8 9cbe 926e 6c3d 620d 003f 6efe 393e
00000020: 226d 9abd 8ef9 e83d b2f3 11be 65dd 293f
00000030: 9eb2 3d3f 91ba 1f3f a3e6 f6bd 46ee d13e
00000040: 7c32 833e 0510 31be dc0d 42bb d79e 653e
00000050: 9b7e a1be d207 d23d 9f7e a1be e966 99be
00000060: ba3e 64bd 0836 f03e 1f13 85be af7c e03e
00000070: 8640 0e3f 735a b43e 2992 8b3e 64f4 cbbd
00000080: f86c 3b3f 59e1 3abe 469b b63e 211e e33e
00000090: fd0a b93e 302f 103f 56b0 cdbd 3afc f13e
000000a0: ca3f f03e c893 0bbd 3999 06be 46e0 a53e
000000b0: 7426 1a3f b40d 973e 8479 2b3f 8461 0e3f
000000c0: d883 923c bb9a 803e 5218 3d3e 703e b13e
000000d0: 9682 b2bd d2fb 043f 01a6 c53e 8a90 ce3e
000000e0: b597 a13e 0eb6 063e 17c7 05be a178 cabe
000000f0: 8757 273e 4032 b63e 2641 db3e f890 a2be
00000100: 95f8 a43d e155 613e 2bc6 5fbe dff2 0e3e
00000110: c603 ac3e 3af2 86be baed ae3e 8579 b5be
00000120: 46d9 2e3e 2093 87be ef52 13be a23c e33e
00000130: 47dd 6abe acb0 b13e 193a bf3e 2976 3abe
00000140: e817 bc3e 8363 c53e 5276 8f3e 7df4 ecbd
00000150: 6005 d13e 9844 073f 598a adbe d974 d93c
00000160: 2592 bebe 0eeb b1be ee0f 74be a262 f6bd
00000170: 70c5 793e 57e0 66be 308a 10be 2385 663e
00000180: 8e0b dfbe dbf7 ef3d a07f 2c3d 2991 2b3e
00000190: c7b0 9e3d 8402 123f 1f86 7fbe 564f fabd
000001a0: c49c 3dbd 0858 3dbc f555 b83e 8018 24bf
000001b0: 21bd 95be 4435 d53e 139d 903e 407c db3e
000001c0: 766f 27be ea78 023f b8e9 113e b23b 103e
000001d0: 5686 043f e134 083f ca73 5e3e 9281 32bd
000001e0: 16ba d0be 55b3 5cbe 5594 b7bd 48af ea3a
000001f0: 95e9 9abd e365 0cbd 56b0 0dbe 9650 0e3f
00000200: 31ff 913e e76d e93e 5434 babd f730 c13e
00000210: d84e 023f a9ed 39be 1509 16bd e3da bebe
00000220: 450e aebe 44d9 093f 2d06 aebe e900 aebe
00000230: a25e 203d 9cba df3e 2e42 26be 4c8c 31be
00000240: bb9c f13e ba3c 2abd addb 0c3f 6922 2cbd
00000250: f762 1e3f f7ea 2f3e 3454 483e d8e4 fa3e
00000260: 3aa2 943e fe3e b4bd ec69 0ebd 9a18 b63c
00000270: 62f7 c1bd 8066 c4bd db6c 28be b5bf c3be
00000280: 61b9 a83e f1ef f83e 7e4a 1b3f 2203 da3e
00000290: 269e d03c f4e4 8c3f 6eae 123f e50b 09be
000002a0: d6b2 51bc 9c39 95be 5752 b43e 759f fdbd
000002b0: 177c 813d 5e8e 463d 18fb 94be f228 163e
000002c0: fc35 0e3f 6bb2 713d e18d 373f d88a 6dbe
000002d0: 8b15 f63e 3a18 b03e 3674 1f3f 5ad0 eb3e
000002e0: c3a5 873e 16c5 d23d e44c 043f 7e60 e53d
000002f0: 1352 283e 6ebe a33c eeea e3bd de0b 7b3e
00000300: 4bc4 57be 1e86 883e 37ce b13e a96e 0abe
00000310: e10f 6c3e 28de 093f 33b3 12be eb18 023f
00000320: 9746 b93d f48b e83e 9e50 1a3e 8163 e93e
00000330: 7f0f e3be 8934 3cbe dbc6 363c 1cc9 6cbd
00000340: fe4e 073f 0c4c a23e a24f 30be 743f c83e
00000350: e39a 353f 3c79 fd3e 7198 d03e 61b4 513e
00000360: 665b 19be 49e1 fd3e d4a2 e73c 974a 103e
00000370: 37d8 d53e 2802 dc3e cabc f73d 525c 20bf
00000380: 760a 0ebe 6f21 da3e 1f20 313e 4090 023f
00000390: cd02 bebd 4d77 d53e b9bf c73e d4d7 943e
000003a0: ada8 a5bd 4c21 2b3f fb12 113f 4e8b 90bd
000003b0: 34f0 16bc dc8f 68be 2bd9 103f 70a1 aa3e
000003c0: 7457 193f b969 f93e a873 e1bd 7287 babe
000003d0: 9c19 313f 2bf2 3ebd 3a91 0abe 8ff9 163f
000003e0: 0475 adbe b144 0fbe 0eb9 63be 5710 05bd
000003f0: dc13 afbe 38dd 3a3b 50ef 37be 9725 9ebe
0.08727665 0.40543443 0.3927455 -0.29490957 -0.30597287 0.057722636 0.5002042 0.18163463
-0.07540347 0.11375724 -0.14253119 0.66353446 0.74100673 0.6239405 -0.12055709 0.410021
0.25624454 -0.17291267 -0.0029610312 0.22423874 -0.31541905 0.10255398 -0.31541917 -0.29961327
-0.055723883 0.46916223 -0.2599115 0.43845126 0.55567205 0.35225257 0.2725995 -0.09958723
0.7321315 -0.18250026 0.3566534 0.44358924 0.36141196 0.56322 -0.10043399 0.47262746
0.46923667 -0.034076482 -0.13144387 0.3239767 0.60214925 0.29502642 0.66982293 0.5561755
0.017885134 0.2511805 0.18466309 0.3461795 -0.087163135 0.5194675 0.38603213 0.4034465
0.31561056 0.13155386 -0.13064228 -0.39545158 0.16341983 0.35585213 0.42823142 -0.31751227
0.08055226 0.22005416 -0.21852939 0.13959835 0.3359663 -0.2635668 0.34165746 -0.35444275
0.1707507 -0.26479435 -0.14387105 0.44382197 -0.22935973 0.34705102 0.37349012 -0.18209137
0.3673699 0.38552484 0.2801996 -0.1157007 0.40824413 0.5283904 -0.33894613 0.026544975
-0.37220874 -0.34749645 -0.23834202 -0.120305315 0.24391723 -0.22546516 -0.14115214 0.22511725
-0.43563503 0.117171966 0.0421139 0.16754593 0.07748561 0.5703509 -0.24953507 -0.122221634
-0.04629208 -0.011556633 0.3600308 -0.64099884 -0.29245856 0.416422 0.28244838 0.42868233
-0.16351113 0.5096575 0.14249313 0.14085272 0.5176748 0.53205687 0.21723858 -0.0435806
-0.40766972 -0.21552785 -0.08963839 0.0017905021 -0.075640835 -0.034276854 -0.13836798 0.55591714
0.28515008 0.4559166 -0.09092012 0.3773267 0.50901556 -0.18157066 -0.036629755 -0.37276372
-0.33995262 0.53847146 -0.33989087 -0.3398507 0.03915275 0.4369706 -0.16236183 -0.17338675
0.47189888 -0.04156182 0.550227 -0.042025004 0.6186976 0.17179476 0.19563371 0.4900272
0.2903002 -0.08801077 -0.034768984 0.022228528 -0.09471013 -0.09589863 -0.16447775 -0.38232198
0.32953933 0.4862056 0.6066054 0.42580515 0.025466036 1.1007371 0.5729741 -0.13383444
-0.0127989855 -0.29145515 0.3521907 -0.1238393 0.063224964 0.048475616 -0.2909782 0.14664057
0.55551124 0.059008043 0.71700865 -0.23197496 0.4806331 0.34393483 0.622867 0.46057397
0.26493654 0.102914974 0.51679826 0.11200045 0.16437559 0.019988265 -0.11128794 0.24516246
-0.21070974 0.26664823 0.34727642 -0.13518776 0.23052932 0.5385461 -0.14326172 0.5081927
0.09046667 0.45419276 0.15069816 0.45583728 -0.4434776 -0.18379416 0.011155809 -0.05780898
0.5285491 0.31698644 -0.17217878 0.3911091 0.70939463 0.49506557 0.40741304 0.20478965
-0.14976272 0.4958594 0.028275885 0.14090954 0.4176652 0.42970395 0.120965555 -0.6264087
-0.13871178 0.42603633 0.1729741 0.5100136 -0.09277878 0.41692582 0.3901346 0.29070914
-0.08088813 0.6684768 0.56669587 -0.0705782 -0.009212542 -0.22711128 0.5658137 0.33326292
0.5989907 0.48713472 -0.11008388 -0.36431462 0.691797 -0.046617668 -0.13531962 0.58974546
-0.33878338 -0.13991047 -0.22238562 -0.032486286 -0.3419484 0.0028513204 -0.17962384 -0.30888054

l1.bias f4 [8]
00000000: 2781 a13e e6be 1f3f 1404 ae3e b596 103f
00000010: 4713 af3e b214 503f 4a06 613f 9711 3f3f
0.31543848 0.6240066 0.33987486 0.5647996 0.34194395 0.8128158 0.8790022 0.74636215

l2.weight f4 [8, 8]
00000000: 548f 293f 3699 22bf 4c7e 4e3f 0933 c3be
00000010: 21fd e7be bd80 2d3f d0ea 8c3f 56d7 d83e
00000020: 273c ba3b ff6e 5b3f 7790 20bf 2498 a63e
00000030: 2f8d eebe 2cff 643f be4e fbbe 82f8 d83f
00000040: 85f8 4f3f e083 41bf 99c8 593f aad1 4bbf
00000050: e028 f93d 13dd 973f 8411 943f 1294 64bf
00000060: 6d2e 323e e1f9 6e3f e6bf 37bf 9b1b 963f
00000070: db95 833e 1444 613f 2d3c 0bbf 87f3 9b3f
00000080: e0c6 19bf fb13 043f 292d 86be 2c1d ed3e
00000090: 7510 363f 9cdd 353f 8dc0 a13f 941f 44bc
000000a0: 2639 553e 852c 84be e6b1 dcbd ab5a 6b3d
000000b0: e4b2 f5bd 1e2e 1abd 89ff 6fbd d96a c13c
000000c0: b2c2 993f 8e9a 2cbd 3bb2 473f 57bf 813f
000000d0: ca41 933f 043f d3be 5256 75be f81c 75be
000000e0: a26c 103f 03e9 79be 929f 32bc 2a2b ab3e
000000f0: f6a6 763f 81cd b9bf 9c18 8b3f b02a 7f3f
0.66234326 -0.6351503 0.80661464 -0.38124874 -0.4531031 0.67774564 1.1009159 0.42351788
0.0056834402 0.8571624 -0.62720436 0.3253795 -0.4659209 0.8945186 -0.49083513 1.6950839
0.81238586 -0.7559185 0.8507171 -0.79616797 0.121659994 1.1864341 1.1567845 -0.8928844
0.17400523 0.93350035 -0.7177719 1.1727175 0.25700268 0.87994504 -0.54388696 1.2183694
-0.60069084 0.5159299 -0.2620633 0.4631132 0.7111886 0.71041274 1.2636887 -0.011970419
0.20822582 -0.25815216 -0.10776119 0.057459515 -0.11997011 -0.037641637 -0.058593307 0.02361052
1.2012541 -0.042139582 0.78006333 1.0136517 1.1504452 -0.41259015 -0.2395871 -0.23936832
0.5641576 -0.24405293 -0.010902302 0.3343137 0.9634851 -1.451584 1.0866885 0.9967451

l2.bias f4 [8]
00000000: e73a 1e3f 94dd 8d3e 30fa a33e ecdf db3e
00000010: 9e43 343f 4a40 c1be 1256 04be 39ab 3f3e
0.6180863 0.27708113 0.32026815 0.42944276 0.70415676 -0.3774436 -0.12923458 0.1871766

l3.weight f4 [7, 8]
00000000: ff22 153f 0ba9 a1be 4aed 883e 1b00 11bf
00000010: 3062 a9bf fcab 4abe 9fec f33e 5322 a0be
00000020: 6f1b 893d 1ce2 9abf 01ac d23d 50f2 ccbf
00000030: 8511 e3bd 57d5 e73d 5d6f 0b3f 673c 143f
00000040: e88e f03e d396 4c3d f6f1 6cbe 6b87 18be
00000050: fd84 463e b4f7 d43d e888 c0bf fc58 2a3f
00000060: f912 21bf 0d75 7a3f 8e70 9dbf 111d 503f
00000070: 9094 1a3f 02c6 293d 9541 aabf a8af d4bf
00000080: a3dd a6bf 84ed f93e a667 8cbf be87 da3e
00000090: aa03 81be 026c 54bd ebd2 be3e 2644 98be
000000a0: 0385 24bf 8b2e a9bf 7ef8 39bf 2a95 2a3e
000000b0: cde0 773e e390 0dbe 053e 4e3f 3725 373e
000000c0: 27e9 153f 3824 bebf 246e 583f f09c 95bf
000000d0: 616f 4f3e f9e0 4a3e e801 22bf bb62 f7be
0.58256525 -0.31574282 0.26743537 -0.56640786 -1.323309 -0.1979217 0.47641465 -0.31276187
0.06694686 -1.2100253 0.102867134 -1.6011448 -0.11087326 0.11319988 0.544668 0.57904667
0.4698403 0.049948525 -0.23139176 -0.14895408 0.19386669 0.10398808 -1.504178 0.6654203
-0.62919575 0.97834855 -1.2299974 0.8129435 0.6038294 0.0414486 -1.3301264 -1.6616106
-1.3036388 0.48814023 -1.0969131 0.42681688 -0.25198108 -0.051860817 0.37270293 -0.29739493
-0.6426546 -1.3217329 -0.72644794 0.16658464 0.24206848 -0.13824801 0.80563384 0.1788529
0.5855889 -1.4854803 0.8454306 -1.1688519 0.20257331 0.19812383 -0.6328416 -0.48317513

l3.bias f4 [7]
00000000: c2fc 613e 7fb6 debe 4eb5 b53e a447 9a3d
00000010: efc0 ccbc ee40 5dbd 5ac4 babd
0.22069076 -0.43498608 0.35489887 0.075331956 -0.024994342 -0.054017 -0.09119482
