chatbot/resource/pthFile/high.pth (torch, 5535 bytes, 6 tensors)

l1.weight f4 [8, 58]
00000000: 0894 72be 6798 1a3f ce4f 32be d1a7 663e
00000010: b603 153f 48e0 0fbf ea0e 173e 7fcd 0ebe
00000020: a0d0 ddbd 8efc 323c 1df6 913e 3d89 b0bd
00000030: 4207 203f 70f5 e5bc 5419 9f3e 1a62 033f
00000040: 1ef9 1bbe f041 493e ed45 08bf 9e79 ed3e
00000050: 7b15 cc3e ec45 6cbe e2b0 103f 45e3 073f
00000060: 4bb8 9b3e 6b40 7cbd f1d3 343e 2448 1a3f
00000070: e432 323f 5367 8e3e 3c7a d43e ae0d eabe
00000080: 4b7c 46be 43d3 6fbe de9e bcbd 897d 273f
00000090: e0b0 8dbe 7d56 d33e 7dc3 ddbd 7458 e9bb
000000a0: 86e3 773d b157 9d3e 6d9e bcbe c7b5 dd3e
000000b0: a829 13be fb9e da3e d5e6 96be 6b2d 2a3f
000000c0: e308 8e3e 8853 10bf b262 c1bd 4cd0 c73e
000000d0: cab7 2c3e 07a9 423f 83af 66be 13a3 013f
000000e0: 49bf 333e 09dc c63e 02f2 563e 564f cfbd
000000f0: 1e19 a1be 48b3 68be e5f9 60bf bc36 483f
00000100: 76d9 afbe 0e64 a8be 91b2 4fbe b011 e4be
00000110: d19b ecbe 81bb 123f 1623 9cbe d0df 213f
00000120: 2b29 a7be d013 5abe cd04 ee3e 1ec6 dcbe
00000130: d128 343f 9b7c 5fbe b169 63bf 0fa5 5d3e
00000140: 41a3 5cbf 8415 6abf c03e 873e d3a4 9f3e
00000150: 9283 b2be 582a d8bd 6025 99be 72f7 8e3d
00000160: f359 84be dc71 273f 9bbf ee3e d36f 1a3e
00000170: e53e b0be c903 94be bb99 f43e 4a07 73bd
00000180: f7c2 46be dcbf 36be c3d9 94be 1cab b2be
00000190: c69b 133f a8a8 59be 28d8 ec3e b79e 14be
000001a0: 9f33 c63e 63bf 88be 11bd a1be ab8a 2b3f
000001b0: 957a 133e e545 adbe 107c 82be 649d bcbe
000001c0: 3f75 ce3e 6176 5cbe 1348 8dbe d9e6 493d
000001d0: d772 253f b7b4 6cb7 c2e9 ee3d 8355 e73e
000001e0: cf88 c33e bf98 50be de23 3b3d 17dd 5c3e
000001f0: d353 d1be c86c a23e 0922 ca3e 0864 47be
00000200: 33d7 00bf 0d84 79be 58b2 ab3e 7bac 24be
00000210: 7f6b af3c 6cea 143f 2e46 d0bd ba99 14be
00000220: f616 183f ffad ca3e bb8b 253f 8f6c 233f
00000230: e4e6 943e 3859 0dbd 0ca1 933e c6a5 8bbe
00000240: 14b1 66be 84c2 86be fa9e 76be 8e8c b5be
00000250: 7219 c7be 865f 8b3e aa99 ab3d 89be 8fbe
00000260: c06a d33c 9363 57be 6ae8 ddbe 8923 75bb
00000270: bcf7 0abc b601 373e 423b 043d cc31 48be
00000280: 97ab 1abe 3fe5 cdbd 964f 8dbe b992 86be
00000290: 4b1d c63e 1e13 573f 4606 c33e ba05 9c3d
000002a0: 2e7d 163e 7011 f6be 544f abbd d358 84be
000002b0: d4e3 0e3c 0e3d d23e 6f99 c83e 8eb6 4a3f
000002c0: 4cd5 e0be 0013 ca3e 4190 49bc af2e f23e
000002d0: 0435 4cbe 4335 efbd c9f9 f5be 8465 96be
000002e0: e831 e13e f46c 5ebe ad72 8bbe e80f 76be
000002f0: d297 383e 05e8 fb3e 3253 d4bd 4a79 ee3e
00000300: 4f62 f03e de26 97be a4c8 fe3e aff3 043f
00000310: 6e2d 093f b692 f63e bec5 b23e b738 0abe
00000320: 31f7 c43e 0ffa 38be c245 263f ca03 3cbe
00000330: 33bc dc3e 8614 833e c110 e9be 2647 9d3e
00000340: 0dd2 7fbe 63b8 233f e64d 713c 0790 67be
00000350: c3e7 e1be 64d2 51be c287 7bbe 9f46 973e
00000360: 505b b73e 446a c8be 091b 5ebe 96ab 143f
00000370: 7e45 bbbe 0b83 153f 8dae 4f3e 53bd 463f
00000380: f4d9 973e 7e5a bd3d bb3f c13e 566a d6be
00000390: 5409 5dbe 4e75 9ebe 5e4d e0bd 05dd 233e
000003a0: d946 a13e 342d e23c 9c11 183f ad6f 88be
000003b0: 17dc 2a3d 459d 333f 1b42 e93e eeeb ee3e
000003c0: 79ee fd3e 4fc7 c63e 9154 9cbe 1117 263f
000003d0: 5b87 e63e 93df 123f 5521 13be 9920 29bd
000003e0: 809d fb3e 23f5 6cbe dd42 543f 7cb1 b1bd
000003f0: c164 09bf e4fa 473e fa61 09bf e65f 09bf
-0.23689282 0.603888 -0.17413256 0.22524954 0.5820879 -0.562016 0.14751783 -0.13945578
-0.10830808 0.010924472 0.28508082 -0.08619926 0.62511075 -0.028071135 0.3107401 0.51321566
-0.1523175 0.1965406 -0.532317 0.4638185 0.39860138 -0.23073548 0.565199 0.5308116
0.30414042 -0.06158487 0.17658974 0.6026633 0.696089 0.27813205 0.41499507 -0.45713562
-0.19383352 -0.23420434 -0.09209989 0.65425926 -0.27674007 0.41276923 -0.10828302 -0.00712114
0.060519718 0.30730966 -0.3683962 0.43302748 -0.1437136 0.42699417 -0.29472986 0.6647555
0.27741155 -0.5637746 -0.09442653 0.39026105 0.16866985 0.76039165 -0.2252789 0.50639457
0.17553438 0.38839749 0.20990756 -0.10122554 -0.31464475 -0.2272464 -0.8788131 0.7820852
-0.34345597 -0.32888836 -0.20282961 -0.44544744 -0.46212628 0.5731736 -0.30495518 0.63232136
-0.32648596 -0.2129662 0.46488038 -0.431199 0.7037478 -0.21824877 -0.8883315 0.21644996
-0.86186606 -0.9143908 0.26415062 0.31180438 -0.34866005 -0.105549514 -0.29911327 0.0698079
-0.25849876 0.6540811 0.46630558 0.1508172 -0.34422985 -0.28909138 0.47773537 -0.059333123
-0.1941031 -0.17846626 -0.2907239 -0.3489617 0.57659566 -0.21255744 0.46258664 -0.1451367
0.3871126 -0.26708516 -0.3158956 0.67008466 0.1440223 -0.33842388 -0.25485277 -0.3683883
0.40323827 -0.21529533 -0.2759405 0.04929242 0.64628357 -1.4108772e-05 0.116656795 0.45182428
0.38190314 -0.20370768 0.045688502 0.21568714 -0.40884265 0.31723619 0.39479092 -0.19471753
-0.5032837 -0.2436678 0.33534503 -0.16081421 0.021413563 0.581702 -0.10169636 -0.14511767
0.59410036 0.39585873 0.64666337 0.6383752 0.29082406 -0.034508914 0.28833807 -0.27274913
-0.22528487 -0.2632028 -0.24084082 -0.35458797 -0.388866 0.27221316 0.083789185 -0.28075054
0.025807738 -0.21034078 -0.4334138 -0.0037405214 -0.008481916 0.17871746 0.032283075 -0.19550246
-0.15104519 -0.10053491 -0.27599782 -0.26283816 0.38694224 0.84013546 0.38090724 0.0761828
0.1469619 -0.4806018 -0.0836474 -0.25849018 0.008721311 0.41062206 0.3917956 0.79184806
-0.43912733 0.3946762 -0.012302459 0.47301242 -0.19942099 -0.11680081 -0.48042133 -0.29374325
0.43983388 -0.2172125 -0.27235928 -0.24029505 0.18026665 0.49200454 -0.10367431 0.4657691
0.46950004 -0.2952184 0.49762452 0.5193433 0.53584945 0.48158807 0.3491649 -0.13498197
0.38469842 -0.1806414 0.6495019 -0.1836082 0.43112335 0.25601596 -0.45520595 0.30718344
-0.24982472 0.63953227 0.014728045 -0.22613536 -0.44122133 -0.20490414 -0.24563506 0.29546067
0.35811853 -0.39143574 -0.2169 0.5807432 -0.36576456 0.5840308 0.2028143 0.77632636
0.29658473 0.09245776 0.37743935 -0.41878003 -0.2158559 -0.3094887 -0.109522566 0.16002281
0.31499365 0.027609445 0.5940187 -0.26647702 0.0417138 0.7016185 0.45558247 0.46664375
0.49596003 0.38823935 -0.3053327 0.64878947 0.45025143 0.573724 -0.14368184 -0.041290853
0.491436 -0.23140387 0.82914525 -0.086764306 -0.53669363 0.19529301 -0.53665125 -0.53661954

l1.bias f4 [8]
00000000: efde 0f3f 3f11 6a3f 87cf 443f e6ce 6d3f
00000010: a860 093f 0764 533f 8d1c 5b3f 22f7 153f
0.56199545 0.91432565 0.7687916 0.92893827 0.5366311 0.82574505 0.8559044 0.5858022

l2.weight f4 [8, 8]
00000000: ac45 893e b8f1 833e 0a78 283f cdc0 653f
00000010: 2f56 8d3e cd24 53be 11c5 51bf 5270 74bf
00000020: d16e 9e3f d953 16bf 09e0 40be 2c12 a13e
00000030: ca12 21bf 164b 703f 1dc4 773f ad14 9c3f
00000040: 0df7 f6be 164d 4c3f 3ff0 733f 3f58 9b3f
00000050: ec42 d0be 937b db3d 067e 553f 375c ee3d
00000060: 0fb4 c3be 3059 0cbd 623e 9f3f 2820 fc3d
00000070: 872b d33e 8115 843f be4f d43e 0af4 2abf
00000080: 7825 92be b069 87bd e829 25bd 5327 873e
00000090: 3908 47be a785 01be 20c3 46bd 9829 7abd
000000a0: 98f4 4b3f c467 d2be 0401 f53e 6e4d 083f
000000b0: 1950 ff3e 12d9 153f 0a6c 70bf 245d efbe
000000c0: bd4f 62be 257d 943f 2ca6 15bf 4d76 23bf
000000d0: f1a5 c43f d36d 183f c8be 373e 61ca 933f
000000e0: 9688 fa3d 87e1 49be b73d 913f 11f8 743e
000000f0: 632c 4dbf 07c2 9b3e f9de 933e ebdb e5bd
0.26810968 0.25770354 0.65808165 0.89747316 0.27604815 -0.20619507 -0.81941324 -0.9548389
1.2377568 -0.5872169 -0.18835463 0.31459177 -0.62919295 0.9386457 0.9678362 1.219381
-0.4823536 0.79805124 0.9528846 1.2136306 -0.40676057 0.10716929 0.8339542 0.11638682
-0.3822331 -0.034264743 1.2440913 0.12310821 0.41244146 1.0319062 0.41467088 -0.66778624
-0.2854421 -0.06611955 -0.040323168 0.2639719 -0.1943673 -0.1264864 -0.04852593 -0.061074823
0.79670095 -0.41094792 0.47852337 0.5324315 0.49865797 0.5853435 -0.93914855 -0.46750748
-0.2210073 1.1600691 -0.58456683 -0.6385239 1.5363141 0.5954258 0.17943871 1.1546136
0.12233083 -0.19714938 1.1346959 0.23922755 -0.80145854 0.3042147 0.28881052 -0.11223587

l2.bias f4 [8]
00000000: 04c1 a23e d93f a53e 8b27 943e c377 a43e
00000010: a622 8abe 91fb 013f 4435 503f 483f 8fbe
0.31787884 0.32275274 0.2893642 0.3212262 -0.2697956 0.50774485 0.81331277 -0.27977967

l3.weight f4 [7, 8]
00000000: 4f2f e8be 244e b5bf a04c d9bd f718 9abf
00000010: fb32 b43e 33cd 62be ef72 833f bf3b 98bf
00000020: 1d1f 063f 9bed cb3d 2ca2 a6bd e752 69bf
00000030: 51fa b03e 1ba7 143f 9095 3cbf 7f1b 9cbf
00000040: d444 93bf e320 43bd 1edc 323f 8182 4a3e
00000050: f543 a43e ff9a 7cbf 3069 a13e 36bb f3bf
00000060: f962 8ebf a6e3 e23e f7d1 b23e e9a3 483e
00000070: 50df 223d c041 91be 6367 45bf a530 8e3f
00000080: b70e 81bf 7323 583f 4c83 41bf 8d66 7cbf
00000090: 505c e73c 5754 54be 2e8a 343e 5e12 8abf
000000a0: 5939 24bf abd7 f2be 0f14 95bf ebc8 4a3f
000000b0: 0ab6 67be 32a5 113f 4383 ba3e 5e19 b4bf
000000c0: abf8 d33e 89de a7bf 3871 973e 74ca 023f
000000d0: e106 b33e 633d 8b3d e625 92be 1f15 063f
-0.45348594 -1.4164472 -0.10610318 -1.2038869 0.35195145 -0.2214859 1.026945 -1.1893233
0.52391225 0.09957429 -0.081364006 -0.91142124 0.34565976 0.5806748 -0.73665714 -1.2195891
-1.150538 -0.047638785 0.6986712 0.19776346 0.32083097 -0.98674005 0.31525564 -1.9041507
-1.1123954 0.44314307 0.34925815 0.19593777 0.03976375 -0.28370476 -0.7711088 1.1108595
-1.0082616 0.8442909 -0.7559097 -0.9859398 0.02824226 -0.20735298 0.17630836 -1.0786855
-0.64150006 -0.47430167 -1.1646746 0.79212826 -0.22628036 0.56892693 0.3642827 -1.4070241
0.41400656 -1.3114787 0.29578567 0.5109017 0.34966186 0.06798818 -0.2854454 0.5237598

l3.bias f4 [7]
00000000: d1ab 1bbc 0e32 a53e 26d6 b4bd 3794 b0be
00000010: 0955 cdbd 1073 b93d 680e 12be
-0.009501413 0.3226475 -0.08829908 -0.3448808 -0.10025985 0.090551496 -0.14263308
