chatbot/resource/pthFile/high.pth (torch, 6367 bytes, 6 tensors)

l1.weight f4 [8, 75]
000000 35 0a b1 3e ce c3 7d be e7 ea 13 3e 36 82 5b be
       0.345781 -0.24781725 0.14445077 -0.2143639
000010 28 d1 e9 be 15 52 b4 3e 4a 1e 0c bf 42 fe dc bd
       -0.45667386 0.35218874 -0.5473372 -0.10790683
000020 9e d3 c2 be 30 8e 39 3f 26 b1 13 bc be 03 b0 bd
       -0.38052076 0.72482586 -0.009014403 -0.08594464
000030 ec 28 24 be 9c 01 70 be 4e c3 ce bd 6d f2 fd bc
       -0.16031235 -0.23438114 -0.10095845 -0.030999387
000040 74 41 f7 3e e8 c7 c1 be 8e 06 ac 3c a8 08 1f bf
       0.48292124 -0.3784783 0.02099922 -0.62122583
000050 4a e8 e9 bd ca 86 57 be 6b fd 36 3f 94 b5 3c be
       -0.11421259 -0.21047512 0.71480435 -0.18428642
000060 d3 bd 02 3f 94 30 c2 be e1 bc 96 3e 30 03 c3 be
       0.510709 -0.37927687 0.29440978 -0.3808837
000070 32 e0 c2 be 85 c8 10 3e 70 9c 0c be 6a ac f1 3e
       -0.38061672 0.14138992 -0.13731551 0.47201854
000080 cb d8 6f 3c f2 70 bf bd 2e 6f 69 3e 9b 1e 53 bb
       0.01463909 -0.093477145 0.22796318 -0.0032214287
000090 9b 0b a5 3e 69 3f 9b 3e 11 20 41 be d0 5e 06 3e
       0.32235417 0.30321816 -0.18859889 0.13122106
0000a0 96 59 8d 3f 28 7f 9c bd f8 0c aa be a1 2b 29 be
       1.1042964 -0.07641441 -0.3321302 -0.1652055
0000b0 00 8c 36 3f 72 b5 10 be 86 33 45 bd 04 57 a0 3e
       0.71307373 -0.14131716 -0.04814484 0.31316388
0000c0 e1 b8 69 3f 76 4b 12 3f a5 a4 e2 3e e6 09 09 3e
       0.9129773 0.57146394 0.4426624 0.13382682
0000d0 82 8a 74 3e a0 45 95 bd 7e 58 0d be 3f 59 03 be
       0.23880962 -0.072886705 -0.13803288 -0.12827013
0000e0 5c 10 e6 3e be f6 11 bf 12 6f 02 bb 2f a6 e9 ba
       0.44934356 -0.57017124 -0.001990263 -0.0017826016
0000f0 03 6b e9 3e 76 89 9b bc 30 4a 94 be ca ea 3b 3f
       0.45589456 -0.018986445 -0.2896285 0.73405135
000100 72 a4 85 3e ad 89 88 3d ba 89 9e bd 6d aa 7e be
       0.26102024 0.066668846 -0.07741113 -0.248697
000110 43 7b 30 bc 50 76 9d 3e ba 3a 20 bb bd 6e 2d be
       -0.010771575 0.30754328 -0.0024449066 -0.16936775
000120 59 25 30 bd e8 13 7c 3e 08 ec 94 3e c3 21 26 3f
       -0.043004368 0.24616969 0.29086328 0.64895266
000130 aa ea 19 be aa c8 81 3e 1e fc 95 bd 1c 97 18 be
       -0.15030923 0.25348407 -0.07323478 -0.14901394
000140 38 d7 44 3e ff 01 5e be ec 78 58 be 6d 29 19 bf
       0.19222724 -0.21680449 -0.21139878 -0.59828836
000150 7e a4 16 3f e9 bf 16 be dd f2 08 3d fd 4b 17 be
       0.58844745 -0.14721645 0.033434737 -0.14775081
000160 21 e4 b8 3e 2e 04 17 be f4 06 d8 3e 96 2e 83 3e
       0.3611155 -0.14747688 0.42192805 0.2562148
000170 b6 0d 18 bf 6b 0c fd 3e e9 41 bb bd ea 98 6d 3e
       -0.5939592 0.49423537 -0.09143431 0.23202863
000180 fb b9 be be f7 ba 1c 3f 95 c0 09 be 2a 85 8d 3e
       -0.37251267 0.61222786 -0.1345237 0.2764066
000190 dd c8 f9 be 23 a7 fa 3e 28 3a 17 bf ca 26 04 bf
       -0.4878606 0.4895564 -0.59073114 -0.5162169
0001a0 e0 23 dc 3d 55 c6 9e 3e e5 8b d2 3d 33 c8 fa bd
       0.1074903 0.3101069 0.10280589 -0.12245216
0001b0 48 bf 0b bd 45 d7 14 bd 3f 9d b2 bd 45 b4 97 3e
       -0.034117967 -0.03633811 -0.087213986 0.29629722
0001c0 ac 53 bf bd 51 62 c8 3e 3a a7 c5 3e 10 ba bd 3c
       -0.09342131 0.3913751 0.38604146 0.02316001
0001d0 70 f8 4e be 0a 94 e5 39 72 21 82 3f 02 f5 3f bd
       -0.20211959 0.0004378858 1.0166457 -0.046864517
0001e0 32 2d 25 3e 49 da 3e 3e 0f 84 05 3e 94 2c 98 3e
       0.16130522 0.18637957 0.13038658 0.2972151
0001f0 34 2e 4d 3e 49 92 e1 3e 51 1b 9e bd d2 25 a6 3e
       0.20037156 0.4405692 -0.07720054 0.3245073
000200 a6 07 3c 3d 7d 74 3a be 0b a3 2e be ca 1f 52 3e
       0.04590573 -0.18208499 -0.17054383 0.20519939
000210 33 ce 68 be e8 9f f4 3e 52 0c 0f 3f 84 20 a7 3e
       -0.22734909 0.4777825 0.55878174 0.32641995
000220 a1 db b4 3e a8 48 86 3f 24 3e 93 3f b0 65 e6 3e
       0.35323814 1.0490923 1.1503339 0.44999456
000230 2a 4b 4a be 85 ef 49 3e 78 ac 19 bd 52 40 2e 3e
       -0.19755235 0.19720276 -0.037517995 0.17016724
000240 10 12 64 3e 8b 60 b5 be 39 7a 9f 3e b4 c7 4a be
       0.22272515 -0.3542522 0.31147936 -0.19802743
000250 b9 6c 5c 3e 30 b4 b1 3d ba e9 55 3e 88 c3 43 bd
       0.2152585 0.08676946 0.20889941 -0.047793895
000260 ef 0d b4 3e 6a 5e c9 3e c0 18 94 3e d4 5d 5a be
       0.3516688 0.39329845 0.28925133 -0.21324855
000270 52 29 bf 3d 38 db b2 bd bd d2 3a be f3 fd 13 bf
       0.09334053 -0.08733219 -0.18244453 -0.5780937
000280 0b e0 ae 3e 3b 0c 22 3f 8b 8a d4 3d 05 80 59 be
       0.34155306 0.6329991 0.103779875 -0.21240242
000290 24 de 75 bd d2 d2 41 be 60 42 b4 be 58 d1 17 3f
       -0.060026303 -0.18928078 -0.3520689 0.5930381
0002a0 6d 57 d9 3e 1a 26 04 3f 4f 76 99 be a2 5d f0 3e
       0.42449513 0.5162064 -0.29973075 0.46946436
0002b0 e7 75 14 bf b5 1a 9a 3d fd 3d cb be 60 34 33 3f
       -0.57992405 0.07524625 -0.3969573 0.7000179
0002c0 1c cc ae 3e f2 50 33 3f 75 10 50 3f e4 41 b2 3d
       0.34140098 0.7004539 0.8127511 0.08703974
0002d0 ca 8b e9 3e 6c 6b eb 3e 82 89 a4 3e ff ba d2 3e
       0.45614463 0.45980394 0.3213616 0.41158292
0002e0 7b ff 08 be 74 af 8a 3e fc 77 d8 be 09 5f 3b 3d
       -0.13378708 0.27086985 -0.4227904 0.04574493
0002f0 31 9b 1e be 99 5e cb 3c 06 e2 85 3f ed c9 60 3d
       -0.15488888 0.024825381 1.0459602 0.05488007
000300 2f 95 f5 3e c4 38 3c 3f 8f ef de be ff 3c ba bd
       0.4796538 0.7352412 -0.43542144 -0.09093665
000310 fe 64 1d 3e ca 49 51 bd d9 1b 08 bf f3 25 df be
       0.15370557 -0.05109576 -0.5316749 -0.4358364
000320 70 c7 90 be 4f 44 75 bd f5 ce 30 be 59 30 e6 3e
       -0.2827716 -0.059879597 -0.17266448 0.4495876
000330 77 14 d2 3e ea 6f c8 3e 9c 20 a0 be a2 f4 95 bd
       0.41031238 0.39147884 -0.3127488 -0.07322051
000340 18 d2 b1 be 39 26 14 3f f8 77 37 be 5c cb 61 be
       -0.347306 0.57870823 -0.17916858 -0.22050232
000350 ef 8a 4c 3f bd 88 b5 3e a8 a5 b8 3e c6 a2 54 3e
       0.79899496 0.35455886 0.36063886 0.20765218
000360 1b d6 15 3e 7f e9 0a 3d 05 fa b3 bb 96 ad 7b be
       0.14632456 0.033914085 -0.005492451 -0.24577937
000370 a1 5e 8c be ed 10 bd be 71 26 88 3e fb 8d 4f bd
       -0.27415946 -0.36926976 0.26591828 -0.050672513
000380 fe 4a a6 3e f9 1a b4 3e 83 b7 04 3f 2b f8 48 3e
       0.3247909 0.35176829 0.51842517 0.19625919
000390 42 78 fe be e1 46 16 3f 0d 4b 2b be 9c 82 e0 3d
       -0.49701124 0.587019 -0.16727848 0.10962412
0003a0 fd 07 1d 3f 65 bf ad be 44 59 48 3f ae 67 46 be
       0.61340314 -0.33935085 0.7826121 -0.19375488
0003b0 01 93 0b bf 39 10 05 3f 6b a8 a1 be 4e 29 57 bb
       -0.54521185 0.5197788 -0.31573805 -0.0032831016
0003c0 a1 d9 2f be 75 a4 d4 3e 5c 12 58 3f 5d 12 96 bc
       -0.17172863 0.4153172 0.84403014 -0.018319303
0003d0 d7 b1 5a bd eb 25 cf be 8e 3d 18 3f ff ee 47 3f
       -0.053392258 -0.40458617 0.59468925 0.78099054
0003e0 28 b6 0d 3f aa 80 e4 3e 66 ce 6f 3f fa 10 d5 3e
       0.55356073 0.44629413 0.93674314 0.41614515
0003f0 3c 5c 80 3f 20 28 85 3f 74 03 98 3e 97 bc b7 3e
       1.0028148 1.040287 0.29690135 0.3588607

l1.bias f4 [8]
000000 ed 7a bb 3e 64 21 14 3f fc 11 14 3f f9 23 20 3f
       0.36617222 0.5786345 0.5783994 0.6255489
000010 b2 f4 cd 3e 33 8d e7 3e 98 35 60 3f a3 2e 1d 3f
       0.4022575 0.45224914 0.8758178 0.61399287

l2.weight f4 [8, 8]
000000 02 a1 6e 3e 3c 65 9a 3f 03 12 4b be 9c db ce 3e
       0.23303607 1.2062144 -0.1983109 0.40401924
000010 b9 6a 8c bf 30 02 cc 3e b9 1b 71 3f 4c db 83 bf
       -1.0970069 0.3984542 0.94182926 -1.0301299
000020 bd 6d a4 3f cf 24 85 3f f2 33 a2 3e 5a b9 9c 3f
       1.284599 1.0401858 0.31680256 1.2244065
000030 39 89 43 3e 37 55 0e 3f fb 01 f8 3e 42 5c 7e bf
       0.19095315 0.5559878 0.4843901 -0.99359524
000040 0a ec d1 be 40 be 55 3f 6a 8d fc 3e 4c 8b f4 be
       -0.41000396 0.83493423 0.4932664 -0.47762525
000050 0f 95 04 bf a5 2e 62 3f 4e 80 2e bf 5f 23 11 3f
       -0.51789945 0.88352424 -0.6816453 0.56694597
000060 d1 30 27 3f 38 91 c3 3e a6 f6 b3 3e 30 ea 5b bf
       0.6530886 0.3819673 0.35149115 -0.85904217
000070 4e d9 70 3e 7b 1c db 3e 7b 33 05 3e cc a0 92 3f
       0.23520395 0.42795166 0.1300792 1.1455321
000080 f6 c2 91 bf de ee b8 3d 5b 03 84 3f 23 f4 97 3e
       -1.1387622 0.09029935 1.0313524 0.2967845
000090 77 da 5c be fc 47 91 3f c8 ef 49 3e 2d c8 91 3e
       -0.21567713 1.1350093 0.19720376 0.28473035
0000a0 ab 0c 46 bd eb bb 34 3f a0 21 33 bf 42 6a 8d bf
       -0.048351925 0.7059924 -0.6997318 -1.1048052
0000b0 74 0b 20 bf 8b af 9a 3e d0 9f 18 3f d4 3a eb 3e
       -0.62517476 0.30212054 0.59618855 0.4594332
0000c0 2d 71 0a 3d 14 7a 85 3e 26 c4 91 3f e9 64 41 3f
       0.03379934 0.260697 1.1387985 0.755446
0000d0 b5 d9 79 bf 27 2f ad be 63 11 20 3f c8 a4 04 bf
       -0.9759782 -0.33825037 0.6252653 -0.51813936
0000e0 5a cb f8 be 01 0c 99 be c2 60 5b be 0e 8c 98 3e
       -0.48592645 -0.2989197 -0.21423629 0.29794353
0000f0 9f 07 e1 3e 27 51 a2 bf d1 53 d8 3f 4b 87 a4 3f
       0.43951127 -1.2681016 1.6900579 1.2853788

l2.bias f4 [8]
000000 6d fa 44 be 7f f8 e0 3d 80 08 c8 3e ce 7f 58 bc
       -0.19236155 0.10984897 0.39068985 -0.013214065
000010 18 8e 0b 3f 29 6c 93 bd fe 8d 08 3f 31 11 83 3f
       0.5451369 -0.07198364 0.5334166 1.0239621

l3.weight f4 [10, 8]
000000 a6 30 0c c0 29 fd 04 3f e5 66 40 be b1 b9 07 be
       -2.1904693 0.5194879 -0.18789251 -0.1325443
000010 b0 5e 93 bd 0b 40 82 bf 43 49 c7 3e 9a 79 52 bf
       -0.071957946 -1.0175794 0.38923082 -0.822168
000020 c9 68 66 bf 41 6f eb be 91 43 30 3f ca 9b 79 be
       -0.9000364 -0.45983317 0.688531 -0.24375835
000030 72 f1 1a 3f 53 be 7b be be fe 4c 3e 7f f1 a9 bf
       0.60524666 -0.24584322 0.20019051 -1.3276824
000040 65 8d a6 bd 3d 0c ca bf 06 92 22 3e 3b c5 89 3e
       -0.081324376 -1.5784985 0.15876016 0.26908287
000050 83 f5 06 be 40 2e 2f 3f 9a f4 33 bf ca 81 ab 3d
       -0.13179593 0.68429947 -0.7029511 0.08374365
000060 e4 c1 28 3e ae d0 2a 3f 55 52 33 bf ce c1 fd bf
       0.16480213 0.6672467 -0.70047504 -1.982477
000070 e1 62 01 c0 6a d8 07 bf 48 5d 57 3e 75 c7 18 3e
       -2.02166 -0.53064597 0.21031678 0.14919837
000080 95 99 60 bf a8 09 1c bf 55 24 47 bf f1 cf a0 bf
       -0.8773435 -0.60952234 -0.77789813 -1.2563459
000090 e3 58 b3 3e fb d5 68 bf 9f 55 6b 3f 83 de 0a 3f
       0.35028753 -0.9095151 0.9192752 0.54245776
0000a0 96 16 ba bf 68 a7 10 c0 4d 6e 17 3f 87 04 25 3f
       -1.4538143 -2.2602177 0.5915268 0.64460033
0000b0 7f fb c0 3e 67 bd 89 bf bd 66 8f bf f8 03 1f be
       0.37691876 -1.0760926 -1.1203228 -0.15528858
0000c0 e0 f5 e0 bf 5f d1 a8 3e b0 3a ee 3d 5e 5a 71 bf
       -1.7575035 0.32972237 0.116322875 -0.94278514
0000d0 4e 70 24 3f 07 05 ae bf 44 19 b7 be 03 11 95 bf
       0.64233863 -1.3595284 -0.35761464 -1.1645817
0000e0 1a cd b1 bf 88 65 d1 bd be b4 af bf 0f 0e 36 3f
       -1.3890717 -0.10224444 -1.3727033 0.711152
0000f0 8b 2c 12 c0 95 ba 2e 3f 44 e4 79 bf 86 dc fd 3e
       -2.2839687 0.6825345 -0.9761393 0.4958231
000100 7a ec a4 3f b8 9a 01 bc c8 0a 83 be 0a 62 65 bf
       1.2884667 -0.007910423 -0.25594163 -0.8960272
000110 46 2c 89 be f1 ba ea be 0c 6f 46 3e 96 96 c6 bf
       -0.2679159 -0.4584575 0.19378299 -1.5514705
000120 62 22 da bf 2c 5a 0d c0 91 16 d5 bf 17 8a 8b 3d
       -1.7041743 -2.2086287 -1.6647512 0.06813448
000130 f8 10 36 3e f4 39 0d c0 23 e8 9a bf 00 c5 82 3f
       0.1777991 -2.2066622 -1.2102093 1.021637

l3.bias f4 [10]
000000 f5 4d 89 3e f4 3f af be e7 36 19 be ba c2 83 3e
       0.2681729 -0.3422848 -0.1496235 0.25734502
000010 34 9d 81 be 46 d7 25 3e b1 62 21 3e 08 92 49 3d
       -0.2531525 0.16195402 0.15760304 0.049211532
000020 fe 56 9e be b8 a0 25 3f
       -0.30925745 0.6469836
