chatbot/resource/pthFile/high.pth (torch, 5535 bytes, 6 tensors)

l1.weight f4 [8, 58]
-0.108876675 0.42752126 -0.2723436 0.33510283 0.14314573 -0.2794025 -0.049432985 -0.20448603
-0.39832678 -0.07446907 0.28343645 -0.25126278 -0.030325081 -0.3792217 0.20616971 0.535798
-0.15701361 0.27370998 -0.1992571 -0.22000962 0.5332861 -0.16288756 0.4025642 0.4668299
0.38236305 -0.13815771 0.20131314 -0.14884715 0.6510895 -0.28835046 0.4748859 -0.039455686
-0.16899738 -0.11088367 -0.45250848 0.58240205 -0.08777588 -0.067893386 -0.48146883 -0.17807579
-0.13480854 0.33235738 0.13810095 -0.12946661 -0.25157306 0.5678193 -0.37996215 0.52809143
0.0990878 -0.38764787 -0.26005372 0.40280366 0.14880311 -0.28037405 -0.1328365 0.030286178
-0.15544581 0.11794056 0.098736994 0.6004756 -0.39713866 0.46024835 0.14405842 -0.63637537
-0.19277114 -0.3743514 -0.44470334 -0.430326 0.27739373 0.1550884 0.036869973 0.0975919
0.23766315 0.4859566 0.03001721 0.42115986 -0.62705076 0.26578203 0.674488 -0.05632034
0.5544091 0.6541931 0.45171767 0.011781765 0.539173 0.008170422 0.52240705 0.010551119
0.47985357 -0.44207883 -0.05102068 -0.04318591 -0.4578413 0.4963789 0.25447556 -0.055377718
-0.49339563 -0.14316119 -0.22271985 0.28598064 -0.012283213 0.22192873 -0.004366564 0.30262825
-0.034964014 0.39293993 0.3897204 -0.12103189 0.031958677 0.26332498 0.3906064 -0.030459346
0.20489384 0.211807 -0.09079009 0.1821708 0.54661375 -0.0011518599 -0.41016912 0.09395504
-0.18403351 0.4304133 -0.13574319 -0.21117558 -0.566 -0.19669214 0.1934055 -0.24529797
-0.20653732 -0.23727925 0.13423109 -0.27524775 -0.22775348 0.1134165 0.71594286 0.54094523
0.09110898 0.48335359 -0.05854618 0.056587152 -0.013493717 -0.20612621 -0.038958594 0.6565793
-0.5126217 0.43369353 -0.44163066 0.7902183 -0.16664432 0.33968154 -0.43444255 -0.3330157
-0.0708655 0.43124098 -0.37586874 -0.13972393 -0.10972091 0.040788412 0.6703141 0.2720827
-0.24515253 -0.12209365 -0.27543953 -0.20799668 0.08810615 0.961985 0.46273234 0.4593285
0.09214934 0.43715954 0.017244814 0.40103585 -0.10923844 0.34255406 -0.13621213 -0.0072550955
-0.3992413 0.21127355 0.4140941 -0.3711944 -0.045091033 -0.2154532 -0.51461154 -0.16906857
0.39680392 -0.2323512 0.07585858 -0.28333727 0.33498055 -0.23156598 -0.1727838 0.38327548
-0.37073946 0.48838806 0.5010168 -0.16424724 0.36665404 0.4579998 0.6066366 -0.09325128
0.1950289 0.35762107 0.045423236 0.2035037 -0.05152303 -0.42272192 -0.3209479 -0.025907917
-0.27546266 -0.15453371 0.0051738974 0.14567238 -0.49731266 -0.038209997 -0.24956265 0.30117005
0.093056336 0.2944841 -0.23251729 -0.014598464 -0.29004276 -0.088399336 0.32390764 -0.51980394
-0.21927255 0.27816024 0.29333854 0.37387437 -0.10295039 0.3938246 -0.09362213 0.07898274
0.55265176 0.716863 0.6210324 -0.09409129 0.089396685 -0.3134121 0.6132801 0.4713381
0.7442092 0.6964876 -0.22603108 0.6056693 0.5042606 0.59104764 -0.1568551 0.45220459
0.34199816 -0.3749207 -0.3133044 -0.31370065 -0.47831744 0.59184384 -0.51901484 -0.5695016
00000000: bcfa debd 11e4 da3e 9f70 8bbe 9992 ab3e
00000010: cb94 123e d80d 8fbe 3e7a 4abd c964 51be
00000020: 7df1 cbbe 3d83 98bd 951e 913e 84a5 80be
00000030: 4e6c f8bc 5929 c2be 271e 533e 0f2a 093f
00000040: 2dc8 20be b723 8c3e 0e0a 4cbe 344a 61be
00000050: 7085 083f ffcb 26be e51c ce3e 5404 ef3e
00000060: 17c5 c33e 3779 0dbe 0825 4e3e 636b 18be
00000070: cdad 263f aca2 93be 3f24 f33e 499c 21bd
00000080: a60d 2dbe fa16 e3bd 31af e7be 4d18 153f
00000090: d7c3 b3bd b00b 8bbd 1583 f6be 8059 36be
000000a0: 400b 0abe bf2a aa3e 566a 0d3e e592 04be
000000b0: 2fce 80be 9b5c 113f 668a c2be 0031 073f
000000c0: 8bee ca3d c879 c6be c325 85be 483c ce3e
000000d0: d85f 183e 308d 8fbe 4b06 08be b81a f83c
000000e0: 302d 1fbe d28a f13d 9f36 ca3d c5b8 193f
000000f0: c255 cbbe aca5 eb3e 0d84 133e 7fe9 22bf
00000100: cc65 45be fdaa bfbe 28b0 e3be b153 dcbe
00000110: 8d06 8e3e 7ecf 1e3e f804 173d 43de c73d
00000120: f85d 733e 4ecf f83e a7e6 f53c 44a2 d73e
00000130: 6686 20bf 9514 883e 3fab 2c3f 28b0 66bd
00000140: c1ed 0d3f 3379 273f 8a47 e73e 4e08 413c
00000150: 3e07 0a3f 3cdd 053c 78bc 053f 9ade 2c3c
00000160: 5eaf f53e 2858 e2be 10fb 50bd b5e3 30bd
00000170: 2d6a eabe 6025 fe3e 9f4a 823e bfd3 62bd
00000180: 5a9e fcbe d998 12be ac10 64be 0e6c 923e
00000190: 883f 49bc 4941 633e 6515 8fbb 17f2 9a3e
000001a0: 6d36 0fbd 6c2f c93e 6f89 c73e 91df f7bd
000001b0: 1ae7 023d 88d2 863e 90fd c73e e185 f9bc
000001c0: b1cf 513e efe3 583e 28f0 b9bd fb8a 3a3e
000001d0: e1ee 0b3f 01fa 96ba b001 d2be 806b c03d
000001e0: 4873 3cbe 225f dc3e 4300 0bbe 693e 58be
000001f0: 60e5 10bf aa69 49be 170c 463e 642f 7bbe
00000200: 857e 53be 55f9 72be e073 093e 46ed 8cbe
00000210: 3538 69be e946 e83d 0848 373f 637b 0a3f
00000220: 5897 ba3d 1f7a f73e 1fce 6fbd eec7 673d
00000230: c014 5dbc c012 53be 0c93 1fbd 9515 283f
00000240: 2d3b 03bf 140d de3e 6a1d e2be bf4b 4a3f
00000250: cfa4 2abe bdea ad3e 416f debe 0981 aabe
00000260: ee21 91bd 9ecb dc3e de71 c0be ca13 0fbe
00000270: 5bb5 e0bd c011 273d b499 2b3f 6c4e 8b3e
00000280: 4409 7bbe 3c0c fabd 6906 8dbe 15fd 54be
00000290: ff70 b43d a644 763f 41eb ec3e 1b2d eb3e
000002a0: cbb8 bc3d 60d3 df3e ff44 8d3c 9254 cd3e
000002b0: 67b8 dfbd 3f63 af3e 317b 0bbe 27bc edbb
000002c0: 5b69 ccbe 1858 583e 2404 d43e 310d bebe
000002d0: 60b1 38bd c39f 5cbe 95bd 03bf 5020 2dbe
000002e0: e229 cb3e 79ed 6dbe be5b 9b3d 9511 91be
000002f0: 9282 ab3e a21f 6dbe 3dee 30be af3c c43e
00000300: 90d1 bdbe 000e fa3e a342 003f 6e30 28be
00000310: 14ba bb3e f37e ea3e 894c 1b3f 87fa bebd
00000320: a8b5 473e 1c1a b73e b70d 3a3d 4663 503e
00000330: d009 53bd 026f d8be 4853 a4be d73c d4bc
00000340: 7109 8dbe 163e 1ebe cc89 a93b 242b 153e
00000350: c49f febe 1682 1cbd 5a8d 7fbe f632 9a3e
00000360: 5294 be3d 9fc6 963e 0319 6ebe 652e 6fbc
00000370: 7c80 94be b60a b5bd 39d7 a53e df11 05bf
00000380: fc88 60be 056b 8e3e 7830 963e 766c bf3e
00000390: a7d7 d2bd 61a3 c93e f6bc bfbd b4c1 a13d
000003a0: 967a 0d3f 5584 373f fbfb 1e3f efb2 c0bd
000003b0: 9c15 b73d 8d77 a0be edff 1c3f 3a53 f13e
000003c0: 7e84 3e3f 034d 323f b174 67be 250d 1b3f
000003d0: 3917 013f e64e 173f a09e 20be 5c87 e73e
000003e0: 621a af3e 9bf5 bfbe 6f69 a0be 5f9d a0be
000003f0: 06e6 f4be 1483 173f 28de 04bf dbca 11bf

l1.bias f4 [8]
0.79734313 0.6376786 0.93833584 0.51976997 0.6690921 0.30037636 0.2992947 0.6277614
00000000: ae1e 4c3f e83e 233f c736 703f a50f 053f
00000010: 9f49 2b3f eeca 993e 283d 993e f9b4 203f

l2.weight f4 [8, 8]
0.6191236 0.16620024 -0.48923096 -0.21085311 0.7085944 -1.2879142 -0.6545094 1.1467103
-0.4031192 0.44335857 0.0715052 -0.79409516 1.52045 0.65449107 0.8266248 -0.70055443
1.2165049 0.83376944 0.26124611 0.9948798 0.18385445 -0.23651673 -0.54269016 -1.0194994
1.0227147 1.080435 -0.256559 0.68480766 0.39108312 -0.5421402 -0.682533 -0.25693536
-0.09792103 -0.012130849 -0.2310899 -0.17172357 -0.08060074 0.16600083 -0.089960635 0.05618707
0.4007915 0.6081944 1.7902716 1.1640011 -0.7536916 0.8363401 1.3685617 1.2655731
0.008129243 -0.49289396 1.1057519 -0.99094146 0.7948618 -0.8188194 -0.36841017 0.38999557
0.5133131 -1.2127028 0.5636661 -0.1134261 0.27195546 -0.7985013 -1.1382004 1.0498861
00000000: e27e 1e3f 6530 2a3e 7b7c fabe e1e9 57be
00000010: 7166 353f 5fda a4bf ee8d 27bf 67c7 923f
00000020: a465 cebe e5ff e23e 5171 923d d249 4bbf
00000030: 1b9e c23f ba8c 273f af9d 533f 8957 33bf
00000040: 6fb6 9b3f ea71 553f 0dc2 853e 71b0 7e3f
00000050: 5744 3c3e 7131 72be beed 0abf f57e 82bf
00000060: 51e8 823f b24b 8a3f b45b 83be 8e4f 2f3f
00000070: 0c3c c83e b3c9 0abf 7cba 2ebf 088d 83be
00000080: d28a c8bd 78c0 46bc d5a2 6cbe 4ed8 2fbe
00000090: 0012 a5bd 1ffc 293e 483d b8bd 6a24 663d
000000a0: 8b34 cd3e a1b2 1b3f 9f27 e53f fdfd 943f
000000b0: eff1 40bf 631a 563f 082d af3f 4dfe a13f
000000c0: 8430 053c 995c fcbe 4789 8d3f 57ae 7dbf
000000d0: 107c 4b3f 269e 51bf 42a0 bcbe 80ad c73e
000000e0: 7d68 033f d839 9bbf 6c4c 103f f14b e8bd
000000f0: bf3d 8b3e 956a 4cbf 8db0 91bf ab62 863f

l2.bias f4 [8]
0.010206614 0.5109081 0.35711333 0.4378625 -0.24257639 0.93942565 0.6626741 0.30535445
00000000: a439 273c e0ca 023f 8fd7 b63e 832f e03e
00000010: f265 78be 337e 703f 03a5 293f 6b57 9c3e

l3.weight f4 [7, 8]
-0.9675772 1.0812666 -0.9027917 -0.9330692 0.074903674 -0.030922618 -1.8490059 -1.3485696
0.7262423 -0.091323994 0.44370538 0.3867869 0.0054043354 -0.81623423 -0.19098192 -1.3348197
0.012775756 -1.3784783 -0.8525941 -0.51406354 -0.21033472 0.3545951 0.57626176 1.2409841
-1.139994 -0.89146847 0.73705506 0.66181237 -0.23095238 0.36560377 -1.0248241 -1.0614414
-1.2027701 -0.7274404 -0.87950265 -1.0365453 -0.31647104 0.8686786 -1.365129 -0.7100992
0.5576965 0.28852886 -0.8909187 -0.003492306 0.1781838 -1.2443752 0.7545285 0.8847098
-1.3446099 0.3605982 -0.4410612 -0.27770945 -0.115594 0.00535828 0.80648875 -1.004925
00000000: 24b3 77bf f266 8a3f 5b1d 67bf a0dd 6ebf
00000010: 1967 993d 6e51 fdbc 3aac ecbf ee9d acbf
00000020: 04eb 393f 1308 bbbd 5a2d e33e ef08 c63e
00000030: da16 b13b baf4 50bf c490 43be 5fdb aabf
00000040: 6851 513c fa71 b0bf 9b43 5abf ab99 03bf
00000050: fc61 57be 7d8d b53e e485 133f 91d8 9e3f
00000060: 53eb 91bf 4737 64bf a4af 3c3f 896c 293f
00000070: c87e 6cbe 6b30 bb3e 702d 83bf 50dd 87bf
00000080: 5ff4 99bf 8939 3abf 1627 61bf 84ad 84bf
00000090: 7e08 a2be b961 5e3f 8cbc aebf 10c9 35bf
000000a0: 33c5 0e3f 0eba 933e 3f13 64bf 2cdf 64bb
000000b0: d075 363e b047 9fbf c828 413f 577c 623f
000000c0: 2d1c acbf 54a0 b83e c6d2 e1be ef2f 8ebe
000000d0: 8cbc ecbd 8394 af3b 0c76 4e3f 62a1 80bf

l3.bias f4 [7]
-0.09006105 -0.30094552 0.32529858 -0.27575552 0.23304671 0.15119386 0.054764245
00000000: ee71 b8bd 8815 9abe 898d a63e d42f 8dbe
00000010: cca3 6e3e 90d2 1a3e 7950 603d
