chatbot/resource/pthFile/high.pth (torch, 6559 bytes, 6 tensors)

l1.weight f4 [8, 78]
00000000: 41b7 2ebe 0b08 3a3f 7860 b93e 53b3 063e
00000010: 938c 9cbe c2eb 943e 9450 023e 1104 283f
00000020: baf0 473f d213 573e 9a69 fabe b374 4abe
00000030: 1cdf 0a3f a1de 9e3d e5a9 7cbe 31c6 8dbe
00000040: 4340 7e3e ff58 cfbe 7ee7 33bd 2b17 04bd
00000050: 3b20 443f 973b 3bbd c6f0 7cbe 4415 a8bd
00000060: 6bbc 7bbe 6fe6 7bbe 8034 e13e b453 29bf
00000070: e08e 613f bca4 28bd 8922 163f 6571 26bb
00000080: f74a a23e 27b0 8a3d f368 f3bd 0134 54be
00000090: b5ca af3e 1ecb 663f b300 0bbe 7b5e 8f3f
000000a0: 9752 323f 7ddd 9b3f 177f c33e e4d8 b83e
000000b0: 837f 763e b369 b73e 741c 0e3f e1a8 6e3f
000000c0: 64e3 11bb c0ad d03d bd75 d1bd 4f3b 703e
000000d0: 6e6c c2be e156 b1be 3407 9c3e 1a65 22be
000000e0: 4702 8b3e e6db 9bbe 8514 83bd 6f79 783e
000000f0: 1fb7 313e a582 023f 231d 013e 3b07 96be
00000100: cd1c a0be 1f9d a93f 5a9e dfbe c7b0 d43b
00000110: e2b0 cf3d 94d0 2f3e b545 203f 8892 443f
00000120: 20eb f53e efb7 923e 2cb0 e33d 8f95 bd3e
00000130: e78f 933e 4830 8bbe 6a12 09be ca2e 46be
00000140: 3167 9bbd ac61 4b3f 58e3 1f3f 61be 683e
00000150: 1f6e 3c3f 322c 23be 42bc 8c3f b166 fabe
00000160: c45a f53e d593 143f 2aaf 913e 20b3 efbe
00000170: 15e1 7d3f 093d 303f 6da6 edbd 0bcf e5be
00000180: e871 3f3f 95ea f9be 334f 31be 074b ccbe
00000190: 06df 3b3f e90b c9bd 9b0f 853f 38a4 3e3f
000001a0: 44f5 cf3d f9de 2f3f 9738 6c3e 5ccb b03e
000001b0: bbee 9c3e d665 a8bd d5a9 9e3e 39b7 c3be
000001c0: a296 98be ccf2 93be 75df aebe 764d db3e
000001d0: 0035 c53a a978 5b3f c8cb 12be 7058 fc3e
000001e0: 1262 543f 978f a63d 534c af3e 4630 eb3e
000001f0: 1498 30bf 81c1 f9be 9eec 16bf 9eb6 c4be
00000200: 38f3 12be 8083 8bbe ed98 d7be f375 adbe
00000210: a85e 423f e58d 0abe 055d 5e3f 683b 0a3f
00000220: 2764 bdbe bf12 3b3f a759 0e3f 4852 373f
00000230: 17ab c1be 649b 023f 7c98 79be 33e4 fb3e
00000240: bc00 3dbf 00a5 81be 21f0 123f 575e 4d3f
00000250: 7230 b63e 1892 50bd 7bb7 bdbc 777c b4be
00000260: 1f51 9f3e 3622 a0be b8d9 843e 8fef 6fbe
00000270: ddb6 5abe 031f 283f 95c1 103f 8f32 debe
00000280: 2ec2 2b3f 6332 933e 85e0 353f 7559 2f3f
00000290: fa99 863f e009 2d3e 5f46 d8be e454 b93e
000002a0: 3760 fe3e 46ae f73d 11e6 333f 16ef 83be
000002b0: 631b cc3e 5372 9abe 1800 703e 5861 493e
000002c0: 2ede 0c3f 9dac a0be 246a 613f 1d8f debd
000002d0: 016b 3e3f 94a8 543f 8006 7e3e 4ae8 803e
000002e0: 2787 ec3e 2334 883d 4418 2f3f b5a8 89be
000002f0: ea38 c93e c7c3 5b3d 2650 febd a6b6 49be
00000300: 4486 85be b9b4 bc3f d99a 94be 9036 8fbd
00000310: 53e8 333f 1748 8e3f 0333 c93c f3aa b93e
00000320: 1e57 1e3e f092 fb3e c164 73be 18ba 18be
00000330: f8ab 57be d54d a93c 615b a9be 07a3 42be
00000340: d19a cabe 5997 ddbe ec9a 9d3d b060 bebe
00000350: 08cf da3d 046b bcbe e7f9 013e 36b7 f83b
00000360: 2c59 843e ec44 adbe 7667 f93d dbfb acbe
00000370: 6443 acbe c934 873f 587e 02bf c96a 88bd
00000380: a34f 263f 0cce a4be c85e b93e 86cb 413f
00000390: c856 853e b6ef 43be 3587 d03e e494 58be
000003a0: 1284 793e e418 d2be 3b0b 45bd c71a 153f
000003b0: 9455 69be d4eb 363f e1ab 12bf abbf fc3e
000003c0: 0503 c5bc 0a59 f93e 88ab 503f d108 47bf
000003d0: 3622 f23e ed4b a2be a9dd 0e3f 5572 53be
000003e0: d751 22bf dcbb 1b3f c00e 493e 6256 9bbe
000003f0: fb52 86be 8fbb 46bf 6ae4 0a3f 1a81 023e
-0.17062093 0.7266852 0.36206412 0.13154344 -0.30576 0.2908612 0.1272605 0.65631205
0.78101695 0.21003655 -0.48908693 -0.1977108 0.5424669 0.07757307 -0.24674185 -0.2769027
0.24829201 -0.40497586 -0.04392194 -0.032248657 0.7661168 -0.045711126 -0.24701223 -0.08207181
-0.24583595 -0.24599622 0.43985367 -0.66143346 0.88108635 -0.041172728 0.58646446 -0.0025397178
0.3169782 0.0677188 -0.11885252 -0.20722963 0.3433434 0.9015368 -0.13574485 1.1200708
0.6965727 1.2176968 0.381829 0.36102974 0.2407208 0.3582283 0.55512166 0.9322644
-0.002226078 0.1018939 -0.10227535 0.23460124 -0.3797335 -0.34636596 0.30474246 -0.1585888
0.27150175 -0.30441207 -0.06400398 0.24265073 0.17355011 0.509806 0.12608771 -0.2930239
-0.31271973 1.3251075 -0.436755 0.0064908 0.101411596 0.1716941 0.62606364 0.7678609
0.4803095 0.28655955 0.111175865 0.37028167 0.28820726 -0.27185273 -0.1338593 -0.19353786
-0.075880416 0.7944591 0.62456274 0.22728874 0.7360553 -0.15934828 1.0994952 -0.48906472
0.4792081 0.58038074 0.28453952 -0.4681635 0.9917157 0.6884313 -0.11604009 -0.44884524
0.7478318 -0.48811784 -0.17315368 -0.3990099 0.7338718 -0.09816725 1.0395387 0.7446933
0.101542026 0.68699604 0.23068462 0.3453015 0.30650887 -0.08222549 0.30988947 -0.38225725
-0.29802424 -0.28896177 -0.3415486 0.42832536 0.0015045702 0.8573099 -0.14335549 0.49286222
0.82962143 0.08132856 0.34237918 0.45935267 -0.6898205 -0.48780444 -0.589548 -0.38420576
-0.14350593 -0.27248764 -0.4210886 -0.3387905 0.75925684 -0.13530691 0.86860687 0.53996897
-0.36990473 0.7307548 0.5560555 0.71609926 -0.37825844 0.5101836 -0.24374574 0.4919754
-0.73829246 -0.25321198 0.5739766 0.80222076 0.35583836 -0.050920576 -0.02315878 -0.3525121
0.31116578 -0.312761 0.25947356 -0.23431228 -0.2135882 0.6567232 0.5654538 -0.43397948
0.6709317 0.2874938 0.71045715 0.68495876 1.051574 0.16898298 -0.4224119 0.3619758
0.4968278 0.12093787 0.7027293 -0.25768346 0.39864644 -0.30165347 0.23437536 0.1966604
0.5502652 -0.31381693 0.8805258 -0.108671404 0.74382025 0.8306973 0.24807167 0.25177222
0.46196863 0.06650569 0.683964 -0.26886526 0.39301234 0.053653505 -0.12417631 -0.19698581
-0.26079 1.4742652 -0.2902439 -0.06992829 0.70276374 1.111575 0.024560457 0.36263236
0.1546292 0.49135542 -0.23768903 -0.14914739 -0.21061695 0.020666996 -0.3307753 -0.19007502
-0.3957124 -0.43279532 0.07695565 -0.37183142 0.10684019 -0.36800396 0.12692986 0.0075902
0.25849283 -0.33841646 0.12177937 -0.337859 -0.33645165 1.0562984 -0.50974035 -0.06660993
0.64965266 -0.3218845 0.36205125 0.7570118 0.2604277 -0.19134411 0.40728155 -0.21150547
0.24366787 -0.41034615 -0.048106413 0.58243984 -0.22786552 0.71453595 -0.57293516 0.4936498
-0.024049291 0.48700744 0.81511736 -0.7774783 0.47291726 -0.31698552 0.55806977 -0.20649083
-0.6340613 0.60833526 0.19634533 -0.30339342 -0.26235184 -0.7762994 0.5425478 0.12744561

l1.bias f4 [8]
00000000: efb3 783e a5eb f63e 0c75 b53e 7b3f 463f
00000010: fc14 7f3f 83aa 353f cfa0 e73e 6b2c 9f3f
0.24287389 0.48226658 0.35440862 0.77440614 0.99641395 0.70963305 0.45239875 1.243543

l2.weight f4 [8, 8]
00000000: 9c0e ad3f 4c42 423f 0c07 a23f 72ce 433f
00000010: 94af 8cbf e233 743e bf92 c63e 6764 803f
00000020: ee46 81be 469b 663e 22a5 063e 3d88 8339
00000030: ccc3 c2be 4a24 823e 0775 55be 6702 9dbe
00000040: a43c 2a3d daf4 913e 14dd 933f f117 3cbf
00000050: c06e 9b3f 1e06 ecbe 70c1 d1be ec26 ae3f
00000060: 84f4 2bbd dc0a aabf cafc febe 0e50 df3e
00000070: 3e04 913f c3cc 9e3e e743 8ebf 6472 a03f
00000080: 2123 64bf 7e74 863f 636d 913e 1fe1 803f
00000090: 9827 cc3f eac2 953f c367 833d c7dc 4ebf
000000a0: eb9e f2be 6335 923f 44f6 2cbf 7389 813f
000000b0: ae8c 953f 1324 a93f a13a 823f eae7 d0be
000000c0: 44ac b93c 0927 6d3e aff8 2b3e 3749 66be
000000d0: 2c40 45be 1db8 82be 0116 77bd 1b2d 63be
000000e0: c14e 78be 0ca6 37be 781d 8abe 37fd a13f
000000f0: f858 ddbe e8f6 953f 89ca 9f3e 5686 803e
1.3520083 0.7588241 1.26584 0.76486886 -1.0991082 0.23847917 0.38783833 1.003064
-0.25249428 0.2252017 0.1314893 0.00025087773 -0.38040006 0.2541831 -0.20845424 -0.30665895
0.041561738 0.2850712 1.1551843 -0.7347403 1.2143173 -0.46098417 -0.40967894 1.3605628
-0.041981235 -1.3284564 -0.49802238 0.43615764 1.132942 0.31015596 -1.1114472 1.2534909
-0.891161 1.05043 0.28403768 1.0068702 1.5949583 1.1700108 0.06416275 -0.8080563
-0.4738687 1.1422542 -0.6756327 1.0120071 1.1683557 1.3214134 1.0174142 -0.40801936
0.02266515 0.23159422 0.16794084 -0.22488867 -0.19262761 -0.25531092 -0.06032372 -0.22185175
-0.24248792 -0.17934436 -0.26975608 1.26554 -0.4323194 1.1715975 0.3120921 0.2510249

l2.bias f4 [8]
00000000: 27e6 1dbe a2c1 cfbd ee56 8a3f d13b 223f
00000010: 03d4 d43e b2f9 953e 5398 55be 300b 3b3c
-0.15419827 -0.101443544 1.0807779 0.6337252 0.41568002 0.29292065 -0.20858888 0.0114162415

l3.weight f4 [11, 8]
00000000: dedd 983e 0134 a03c af41 933e f619 08c0
00000010: b615 b5bf 835a 0ebe d96f 7bbe a72a b9bf
00000020: 6ee0 9c3c 2079 a4be 567d f63e 5e4d d6be
00000030: 3e61 0dbf f999 aabf 5799 87be f6c5 4fbf
00000040: 7367 86bf e82c f73d 4d61 40bf 5b91 033f
00000050: 2819 8c3e defd 323e fce2 0d3d dc03 df3e
00000060: a9d3 80bf d1a9 8b3e 8dac 183f 6e1f 853f
00000070: fde6 32c0 8a3b 11c0 1df6 2cbe 6da7 75bf
00000080: 2c80 9ebf 3135 afbe bde3 c83e cc17 0cc0
00000090: 9074 b23e 0182 173f a821 9a3e 843c d6bf
000000a0: 44fc 173f 26d5 bcbd 0533 38be 0611 d8bf
000000b0: 57c7 f5bf 2315 a2bf 7daa 43be e94a c13d
000000c0: ba7b 0ebe 6334 28be 6f89 acbe 209f 8c3e
000000d0: 0770 11c0 a54c 24bf 4e54 acbe 7561 9a3f
000000e0: 3dae 8cbd 6fa2 6dbe e602 1fc0 927d 42bf
000000f0: 6957 babb bfa4 0b3f 038f 92be f49a ef3e
00000100: 45d4 04c0 8d4f aebe b8b5 f9bb 6d9b 8b3f
00000110: e130 cdbe 8fe2 d4bd f4b6 133e a1ff 01c0
00000120: 66b2 aabf e6cc 1a3e f416 cabf d3b3 b3bf
00000130: 86f8 e83e b614 393f 91c0 83be 2e51 763e
00000140: e0ae 9f3e b5eb 5fbe cdcd 5bbf e5f0 0cc0
00000150: cc66 b4be ffcf 3c3e 74ac 933e 685b a13e
0.2985677 0.019556047 0.2876105 -2.1265845 -1.4147251 -0.13901715 -0.24554385 -1.4466141
0.019149985 -0.3212366 0.481425 -0.418559 -0.55226505 -1.3328239 -0.26484177 -0.8116144
-1.050032 0.12069112 -0.7514847 0.5139367 0.27362943 0.17479655 0.034640297 0.43557632
-1.0064594 0.27277997 0.5963829 1.0400217 -2.7953484 -2.269259 -0.1689076 -0.95958596
-1.2382865 -0.3422027 0.3923625 -2.1889524 0.34854555 0.59182745 0.30103803 -1.6737218
0.593693 -0.09220342 -0.17988212 -1.6880195 -1.9201459 -1.26627 -0.19108005 0.09438116
-0.13914385 -0.16426234 -0.33698604 0.27465153 -2.2724626 -0.6417945 -0.3365807 1.2060992
-0.06869171 -0.23206495 -2.484552 -0.75972855 -0.0056866896 0.5454826 -0.28624734 0.46797907
-2.075456 -0.34045067 -0.0076205395 1.0906807 -0.40076354 -0.10394775 0.1442526 -2.0312274
-1.3335693 0.15117225 -1.5788255 -1.4039253 0.45502108 0.7229723 -0.25732854 0.24054405
0.31188107 -0.21867259 -0.858609 -2.202203 -0.35234678 0.18438719 0.2884251 0.3151505

l3.bias f4 [11]
00000000: 8b59 0a3f bddd 46bd 634e 933e 10ee 143f
00000010: a5f5 713d aa6e 363e ee52 0cbd 6fc2 73be
00000020: b496 0ebe 272f 0abe 449e 80be
0.5404288 -0.04855131 0.28770742 0.58175755 0.059072156 0.17815652 -0.034258775 -0.2380464
-0.13924676 -0.1349455 -0.25120747
