chatbot/resource/pthFile/low.pth (torch, 5535 bytes, 6 tensors)

l1.weight f4 [8, 58]
000000 a2 be de 3e 09 44 d9 3c b1 ad 95 be ff 3b 72 3e
       0.43504816 0.0265217 -0.2923408 0.23655699
000010 06 d2 f0 3d e4 b7 ff 3e 7f 4e 4d bd 7a 0b 76 be
       0.11758809 0.49944985 -0.050123688 -0.24027815
000020 bf 37 ed be 54 a4 2e be 5b ca ed 3e 52 6b 47 be
       -0.46331593 -0.17054874 0.46443447 -0.19474533
000030 a2 4a 9b be 17 cf 9a be ae 77 8a 3e 1e 61 01 bd
       -0.30330378 -0.30236122 0.27044433 -0.03158676
000040 dc e4 b0 3d 19 45 92 3e 0c 2a 13 3f c9 02 b9 3d
       0.086374015 0.28568342 0.57486033 0.09033734
000050 05 a2 c9 3e 41 4c ba 3e df 94 08 3f 89 e3 13 3f
       0.39381424 0.36386302 0.5335216 0.57769066
000060 79 0a c3 3e d6 08 8b be ec 34 8c 3e ec 7c da bd
       0.38093928 -0.2715518 0.27384126 -0.10668358
000070 10 b1 3d be d5 6d a0 bb 4c cc 6f be 5f 98 03 3e
       -0.18524575 -0.0048959055 -0.23417777 0.12851094
000080 09 14 a2 be fb 4c 5a 3e 3b ae af be f2 12 9b be
       -0.3165591 0.21318428 -0.34312615 -0.30287892
000090 60 20 d8 3b 6c 1b d6 bd e8 ef 10 bf a1 bd 84 bd
       0.0065956563 -0.10454449 -0.5661607 -0.06481481
0000a0 4c 68 8b be 60 6a 06 3e ad e4 aa 3e 8e 0c e8 3d
       -0.2722801 0.13126516 0.3337759 0.113305196
0000b0 90 07 1b be 14 d6 37 be 2b 6b 61 be b9 c7 4a be
       -0.15139604 -0.17952758 -0.22013538 -0.1980275
0000c0 1c 88 30 3e 47 0a 21 3f 9b a6 ce 3e 5a c2 5d 3e
       0.17239422 0.62906307 0.40361485 0.2165617
0000d0 28 04 7d 3e 4e 52 b4 bd d1 ea f4 bd 59 11 17 3e
       0.24708617 -0.08804761 -0.1195885 0.14752711
0000e0 34 81 5a bd 33 c9 67 3e a4 be 5d be c4 a3 ae 3d
       -0.053345874 0.22635345 -0.21654755 0.085273296
0000f0 0b c4 9a be 98 dd 77 3e f0 67 5a 3e d7 93 94 3e
       -0.30227694 0.24205625 0.21328712 0.29019043
000100 c4 bf 94 be 91 db 16 be 7b c3 f2 be 94 04 ae be
       -0.29052556 -0.14732195 -0.47414765 -0.33987868
000110 9d 30 7a 3e b9 a2 39 3f 34 82 32 bd 1f 0f 1a 3f
       0.24432607 0.7251392 -0.043581203 0.6017932
000120 bf 97 cf 3e 81 1a e9 3d 82 07 20 3f 91 ce 57 3e
       0.4054546 0.11382008 0.62511456 0.21074893
000130 37 d5 59 3e b4 85 7a be d3 27 0d 3f 48 f9 b8 be
       0.21272741 -0.24465066 0.5513889 -0.36127687
000140 06 97 df 3e e9 02 02 3f fd 06 38 3f 92 87 b5 3e
       0.4366991 0.5078569 0.71885663 0.35454994
000150 cc a7 27 3e 47 b5 98 be f1 ae f6 3d 4a 23 47 be
       0.16372603 -0.29825804 0.12045086 -0.19447055
000160 3c 3b b2 3e 20 9c 7a 3e 0b 73 1d 3f 14 ad bf 3c
       0.34810817 0.2447362 0.61503667 0.02339796
000170 73 f6 27 be a0 d1 01 bd af b8 db 3e 9d ca 26 be
       -0.16402607 -0.031694055 0.4291434 -0.16288228
000180 46 8c 8b be 23 25 ea bd 82 39 4c be 6b e9 c7 3e
       -0.27255458 -0.114328645 -0.19943812 0.3904527
000190 eb f8 ea 3e 89 e7 9b be f9 c8 1e 3f 54 d8 97 3e
       0.45893034 -0.30450085 0.6202541 0.29657233
0001a0 43 bc e3 3e a4 87 d2 bd 8d 98 94 3e 73 10 3d bf
       0.4447957 -0.10279778 0.29022637 -0.73853225
0001b0 2e 1a 24 be 7f b6 e9 3d 09 d6 a5 3e 26 1f d2 be
       -0.16025612 0.114117615 0.32389858 -0.4103939
0001c0 17 8e ee 3e 5f 06 30 be 8f a3 1b be 9a 17 a4 3c
       0.4659278 -0.1718993 -0.15199111 0.020030785
0001d0 06 fc 0a 3f d5 01 19 3f 96 ca 83 be 43 b7 41 3c
       0.5429081 0.5976842 -0.25740498 0.011823478
0001e0 d2 d0 ba be c7 e8 d7 be dd 79 06 be a8 a6 7c bd
       -0.36487442 -0.42169783 -0.13132425 -0.061682373
0001f0 33 07 44 bd 73 13 3b be 71 9f 4f be 40 eb c7 bd
       -0.04785843 -0.18269138 -0.20275666 -0.09761667
000200 36 5d 49 3c f3 98 86 bd d1 46 97 bc b0 c9 10 3f
       0.01229029 -0.065721415 -0.018466385 0.5655775
000210 c2 84 a5 bd ce 3f f5 bd 5d e7 d7 be ff 5f 8a be
       -0.08081962 -0.119750604 -0.42168704 -0.27026364
000220 8b 4b c0 bd e3 33 a9 3e e7 a7 3d be c3 89 35 be
       -0.09389409 0.330474 -0.18521081 -0.17728333
000230 08 8d 40 be 97 3f 12 bd 74 dd f2 bd 5e a4 61 bd
       -0.18803799 -0.035705175 -0.11858645 -0.055088393
000240 44 e7 58 3e 4e 7e a8 bd 34 6b 92 3e eb 79 c0 be
       0.21181971 -0.08227216 0.28597414 -0.37593016
000250 b6 5f 85 bd df dc c5 3e 37 c8 a3 bd c0 6f 5f 3e
       -0.06512396 0.38645074 -0.07997172 0.21819973
000260 33 d5 fe bc b4 8f c6 bc 74 00 10 be 86 d9 f4 bc
       -0.03110752 -0.024238445 -0.14062673 -0.02988888
000270 de ed 30 be 8f 31 c6 3d 77 0c 35 be 01 40 51 be
       -0.17278239 0.09677421 -0.17680536 -0.20434572
000280 8c ee 15 3d b0 b9 ca 3e dc bf 10 be 91 ac bc 3e
       0.03660445 0.39594793 -0.14135689 0.36850408
000290 e3 40 81 bc 66 92 59 3f a6 8b cb 3e fc e1 3e bd
       -0.01577801 0.8498901 0.3975498 -0.046602234
0002a0 d2 9a 48 3e 0b 32 a2 be b3 af 42 be 7a 90 71 be
       0.1959031 -0.31678805 -0.19012336 -0.2359027
0002b0 8d ff 8a 3c 08 6d 06 3e 89 1c 54 3e 7a 8c 81 3f
       0.01696756 0.1312753 0.2071401 1.0120995
0002c0 75 87 7d 3e 15 e1 ef 3e 92 37 d0 3e 83 de 0b bf
       0.24758704 0.4685141 0.40667397 -0.546364
0002d0 b9 1c 09 3e 0b de 87 3e b3 62 12 3e 12 be 2c 3e
       0.13389863 0.26536593 0.14295463 0.16869381
0002e0 c2 15 b9 3e 83 a0 a5 3e 7f af 36 3d 15 80 d4 3e
       0.36149412 0.32349023 0.04460096 0.4150397
0002f0 d4 9e 96 bd 1f f4 2d 3f 6d d9 b6 3e a6 42 03 3f
       -0.07354513 0.67950624 0.35712758 0.5127357
000300 34 dc 0b bf a9 6f c2 be 04 74 32 3f 64 6d b7 3e
       -0.5463288 -0.37975815 0.69708276 0.35825646
000310 fa 43 23 3f d4 ff 12 3f de 9a 0f 3f f7 80 4f 3e
       0.637756 0.5742161 0.56095684 0.2026404
000320 4e ae 9f 3e b1 82 74 be dd 18 72 3f b9 81 0a be
       0.3118767 -0.2387798 0.9456919 -0.13526048
000330 96 96 24 3f f6 4b be be 55 87 a3 3e 4d 17 ac 3d
       0.64292276 -0.3716733 0.31939188 0.08402882
000340 08 5a f8 3e 4a 7e 5c 3f 85 b1 95 3e c9 01 65 be
       0.48506188 0.861302 0.29237 -0.22363962
000350 b6 a4 08 3e c7 43 1e 3e fc eb 79 3e ea 15 af bd
       0.13344082 0.15455543 0.24406427 -0.08549102
000360 42 1c b4 be a0 82 be be e4 fe a4 3e 15 c4 27 3f
       -0.3517781 -0.37209034 0.32225716 0.6553357
000370 5d dd a5 3e 0a c3 5d 3f 7d 6b bb bd c1 38 24 3f
       0.3239545 0.8662573 -0.09151361 0.641491
000380 8f 76 54 3e 87 fc 2f 3d c9 12 92 bd 71 2a cc be
       0.20748352 0.04296544 -0.07132489 -0.3987613
000390 6e f7 86 3e b2 11 1c be 54 f2 75 3e 85 55 38 3e
       0.2636065 -0.15241125 0.24018222 0.18001373
0003a0 10 13 32 3c fd 75 86 be de 5c bf be a5 19 d2 3e
       0.010868803 -0.26261893 -0.3737554 0.4103519
0003b0 e1 cc bb 3d 2a f4 3b 3f 45 80 0e be d9 56 fc bd
       0.09169937 0.7341944 -0.13916118 -0.123212524
0003c0 86 9b d3 be 96 ec 80 be 82 5d cc 3e b4 f0 4c be
       -0.41329592 -0.251805 0.3991509 -0.20013696
0003d0 15 9f 1c bd 2f b2 8d be 20 f3 b1 bd b5 d3 8c be
       -0.03823765 -0.27675006 -0.086889505 -0.2750527
0003e0 36 6f 9b 3c f2 f1 cc 3e 5e 4a 76 3f 79 24 72 3e
       0.018973928 0.4002834 0.96207225 0.23646726
0003f0 84 a7 11 3f 16 de 6a bd 89 4c d7 3e c1 28 04 3f
       0.56896234 -0.057340704 0.4205058 0.51624686

l1.bias f4 [8]
000000 d8 47 36 3f b5 0a 3d 3f 72 f1 d7 3e a8 dc 0b 3f
       0.71203375 0.7384446 0.42176396 0.5463357
000010 2b 1d 46 3f 94 6b 48 3f 49 5f e8 3e 2d 03 3f 3f
       0.77388257 0.7828915 0.45385197 0.7461422

l2.weight f4 [8, 8]
000000 84 24 b2 3e 32 2b 37 3c b9 8c 1e bf 24 e8 ab bf
       0.34793484 0.011179732 -0.61933476 -1.3430219
000010 bf fb 2b 3f 72 ae 8e 3f a3 ec a0 bd b5 59 62 be
       0.6718101 1.1146986 -0.07857635 -0.22104533
000020 6f e2 ae 3f 65 84 c5 3e 3b c2 52 be 6e 1d 8e be
       1.3662852 0.38577572 -0.20581906 -0.27756828
000030 a4 fd aa 3f 89 0f 36 3f bb 47 5e bf cb 6b 48 3f
       1.3358655 0.71117455 -0.868282 0.7828948
000040 d8 f7 53 3f aa 46 9b 3f 47 3d 6a bf be f8 80 3e
       0.82800055 1.213094 -0.9149975 0.25189775
000050 65 f5 00 3f 87 1c 4d bf 6e 50 c7 3e ec 17 6f 3f
       0.5037444 -0.80121654 0.3892855 0.93395877
000060 af 60 d2 3e 01 54 90 bf 69 88 8f 3e b0 ea 45 be
       0.4108939 -1.1275636 0.2803376 -0.19327807
000070 aa 99 63 be 10 37 ab 3f b0 ab 4e 3f f7 ea 0f 3f
       -0.22226587 1.3376179 0.80730724 0.562179
000080 75 ca 7e be 67 89 a4 be 6c a0 9b 3f 51 a3 64 3f
       -0.24881919 -0.3213608 1.2158332 0.893117
000090 13 3f 41 bf 7c 76 ff bd 2b 90 11 3f 6c b4 de 3d
       -0.7548687 -0.12473771 0.5686061 0.108742565
0000a0 ff 42 47 3f 61 82 37 bf de 9e 9e 3f 46 d5 6e 3f
       0.778366 -0.7168332 1.2392232 0.9329418
0000b0 3e d8 9c 3c 36 94 8b be e3 93 f2 bd 2d 9c 28 3f
       0.019146081 -0.27261513 -0.118446134 0.65863305
0000c0 b2 61 88 3f f4 d4 e9 3e 4d bd 6b 3f 06 d8 1e 3f
       1.0654814 0.45670283 0.92085725 0.62048376
0000d0 43 e3 d1 3e 23 89 06 be 9a 9b 13 bf 10 69 69 3f
       0.409937 -0.13138251 -0.57659304 0.9117594
0000e0 db f7 0f bf 2e 8c 7a 3f 04 07 13 bf 71 fe 82 3f
       -0.5623757 0.9787015 -0.5743258 1.0233899
0000f0 0e fc 48 bf e9 7a 18 be 36 13 f1 3e 48 6e 71 3d
       -0.78509605 -0.14890637 0.4708497 0.058943063

l2.bias f4 [8]
000000 29 af 17 3f 70 11 04 3f 16 d0 4b 3e d0 0f b4 3e
       0.5925165 0.5158911 0.19903597 0.35168314
000010 09 8e b6 3d b9 96 11 be 2a 32 9c 3e cf f0 4d 3f
       0.0891381 -0.14217652 0.30507022 0.8044557

l3.weight f4 [7, 8]
000000 19 02 05 bf af ae 8d bf 86 50 25 3f da d9 93 bf
       -0.51956326 -1.1068934 0.64575994 -1.1550858
000010 c5 54 7e be 8b e1 8f bf eb f8 45 3e 1a 61 e4 3e
       -0.24837025 -1.1240705 0.19333236 0.44605333
000020 74 c9 71 bf 2a ba 5f bf 9a b1 31 bf e7 71 45 bf
       -0.9444802 -0.8739344 -0.69411623 -0.77126926
000030 6b 6e 6e 3e 6c 80 ec 3e 53 50 5c 3e b4 9b 07 3f
       0.23284309 0.46191728 0.21515016 0.5297196
000040 22 56 0e 3f 65 46 23 3f 08 de cd be 9c 4a f9 be
       0.5560018 0.6377929 -0.4020846 -0.48689735
000050 e0 ab 5b bf d2 4e a6 bf e4 e6 8c 3e ce b1 26 bf
       -0.85809135 -1.2992804 0.27519906 -0.6511506
000060 f1 88 a6 bf 48 c4 b8 3e 72 cd 27 3f 7a 1d 85 bf
       -1.3010541 0.3608725 0.6554786 -1.039962
000070 aa ca c4 bf bc e2 93 3c 33 06 00 3f 10 b7 85 be
       -1.5374348 0.018052451 0.5000946 -0.26116228
000080 1c c1 ed 3e 34 76 6a 3e c1 ea d6 bf f8 1e 20 3f
       0.46436393 0.22896653 -1.6790391 0.62547255
000090 db ca a4 bf 37 f8 5d bf c2 32 6d bf 3a 51 5d bf
       -1.2874407 -0.8670687 -0.92655575 -0.86452067
0000a0 7d 82 be be 53 66 2c bf 36 28 88 bf 38 ac 3e 3f
       -0.3720893 -0.67343634 -1.0637271 0.74481535
0000b0 91 a7 a4 3e ae aa 2c bf 24 d0 46 bf 05 e2 d3 3e
       0.32159093 -0.67447937 -0.7766135 0.41383377
0000c0 51 50 7f bf 2a a3 b9 bc 54 d0 52 bf ec ff bd 3e
       -0.9973193 -0.02266081 -0.82349133 0.37109315
0000d0 48 6e 0e be 1b 40 0c 3f 5a 33 0d 3f f5 91 96 bf
       -0.13909256 0.5478532 0.5515648 -1.1763293

l3.bias f4 [7]
000000 76 f0 21 3d a4 58 1d be bb 73 88 bc 71 3e 01 be
       0.039535962 -0.15365845 -0.016656747 -0.12621476
000010 19 ed 99 3e 00 6d 41 be f2 7e ec be
       0.30063704 -0.18889236 -0.46190602
