chatbot/resource/pthFile/low.pth (torch, 5727 bytes, 6 tensors)

l1.weight f4 [8, 62]
0	0xbead9a6c	-0.33906877
1	0x3ed71f6d	0.42016163
2	0x3ee868da	0.45392495
3	0x3f015382	0.5051805
4	0x3f15714e	0.58376014
5	0x3f0d9876	0.5531076
6	0x3e98880c	0.29791296
7	0x3f04b418	0.518373
8	0x3f54840c	0.8301399
9	0x3f05b6d1	0.5223208
10	0x3ee967f5	0.45587125
11	0xbe90a774	-0.28252757
12	0xbdc8d128	-0.098055184
13	0xbe8ec087	-0.27881262
14	0x3ec7a3f8	0.38992286
15	0x3edc7ceb	0.43064055
16	0xbe69beff	-0.22826765
17	0x3e9f91ba	0.31165868
18	0x3f14c3c3	0.5811121
19	0xbe2caf78	-0.16863811
20	0x3f2c9bca	0.67425215
21	0xbeb8fdbc	-0.36131084
22	0x3f100a2b	0.56265515
23	0x3f125992	0.57167923
24	0x3e74ccd8	0.23906267
25	0xbca8c350	-0.020600945
26	0x3f129afb	0.5726773
27	0xbee15add	-0.44014636
28	0x3f11c98e	0.56948173
29	0xbea66e2b	-0.32505926
30	0x3e9a288b	0.30109057
31	0x3db299ec	0.087207645
32	0xbed7c93c	-0.42145717
33	0xbe6dc934	-0.23221284
34	0x3f149235	0.58035594
35	0x3f1ac22d	0.6045254
36	0xbe1a70e7	-0.15082131
37	0xbe9f4194	-0.3110472
38	0x3f63d19b	0.8899171
39	0x3ddc387d	0.10752962
40	0x3e4d939a	0.20075837
41	0x3e6ce11a	0.23132744
42	0x3ed79d27	0.42112085
43	0xbeaabbe0	-0.33346462
44	0xbe90c266	-0.28273314
45	0x3eb2ffb9	0.34960726
46	0xbe3f4e75	-0.18682273
47	0x3eb94297	0.36183617
48	0x3ebfdfc5	0.3747541
49	0xbf6f1b5f	-0.9340114
50	0xbe6bc958	-0.23026025
51	0x3e3a4f95	0.1819442
52	0x3ea6c2d2	0.3257051
53	0x3ef08408	0.46975732
54	0xbf1eaf27	-0.6198601
55	0xbdb1258a	-0.08649738
56	0xbea5d016	-0.3238532
57	0x3de83a10	0.113391995
58	0x3e9a0fa9	0.30090073
59	0x3ee5c501	0.44876865
60	0x3ef75767	0.4830887
61	0x3ef3768e	0.47551388
62	0x3ed1422f	0.40870807
63	0x3ed07e9b	0.40721592
64	0xbe8ad5f5	-0.2711636
65	0x3e730990	0.23734117
66	0xbd7aec77	-0.061260667
67	0x3f340db0	0.70333385
68	0xbe5c294a	-0.21500126
69	0xbe61c24a	-0.22046772
70	0xbf090fc8	-0.53539705
71	0xbe027cf6	-0.12742981
72	0x3e9ead0c	0.309914
73	0x3e99d7a4	0.30047333
74	0xbec6ea88	-0.38850808
75	0x3d9edd9a	0.07757111
76	0x3d00bfa6	0.03143277
77	0x3dc62750	0.09675467
78	0x3e8114d1	0.25211194
79	0x3ec3f52f	0.38272998
80	0x3f55c16d	0.8349827
81	0xbe92c20b	-0.28663668
82	0x3dc95868	0.09831315
83	0x3e76ea18	0.24112737
84	0x3de68bf0	0.1125716
85	0x3df16f55	0.11788813
86	0x3ef18e1f	0.47178742
87	0xbd30044a	-0.04297284
88	0x3ebe8ae8	0.37215352
89	0xbe89f647	-0.26945707
90	0x3acb4c01	0.0015510322
91	0xbe128e09	-0.14311995
92	0x3eb2c47a	0.34915525
93	0x3f193258	0.59842443
94	0x3e1dcf7b	0.15411179
95	0x3eb9f74b	0.36321482
96	0xbe7fe4eb	-0.24989669
97	0xbe314fa9	-0.17315544
98	0x3ec8b569	0.39200905
99	0xbe291989	-0.16513647
100	0xbef3fb07	-0.47652456
101	0xbe83cafb	-0.257408
102	0xbe1e9178	-0.1548518
103	0x3dbc68d3	0.09199681
104	0x3f1e163b	0.6175267
105	0xbea35af1	-0.3190532
106	0x3d7bd256	0.06147989
107	0xbcdcf917	-0.026974244
108	0x3c002c91	0.007823125
109	0xbe62bac4	-0.22141558
110	0x3e85ffab	0.26171622
111	0x3f1f3aab	0.62198895
112	0x3ee72e97	0.45152733
113	0x3dc634df	0.09678053
114	0xbdc9980c	-0.09843454
115	0x3d88d875	0.06681911
116	0xbeda75f9	-0.4266813
117	0x3e2cb5bb	0.168662
118	0xbe42c48d	-0.1902029
119	0xbe6141a0	-0.2199769
120	0x3e293eeb	0.16527908
121	0x3d6e11c0	0.058122396
122	0x3c8f0f33	0.017463302
123	0xbdc36dcb	-0.09542426
124	0x3f028ec6	0.50999105
125	0x3d8b4a34	0.068012625
126	0x3eee48f3	0.4654003
127	0x3ed6d7b6	0.4196145
128	0x3d6bc288	0.057558566
129	0xbef33c97	-0.47507164
130	0x3eefcf46	0.46837825
131	0x3f1bc3c0	0.60845566
132	0xbe7f495c	-0.24930328
133	0x3edb8de5	0.42881694
134	0x3f1bd8d0	0.60877705
135	0xbed28af1	-0.4112163
136	0xbd8ec3e4	-0.06970957
137	0xbeb2f96e	-0.34955925
138	0x3ea55839	0.3229387
139	0xbe591b1c	-0.21201748
140	0xbda9d8a5	-0.08293275
141	0x3f141a44	0.5785258
142	0xbefa1ace	-0.48848575
143	0xbec8e075	-0.39233747
144	0x3f23f4de	0.6404551
145	0x3ec74fa5	0.3892795
146	0x3f3ab484	0.72931695
147	0x3f143d36	0.579059
148	0x3d20f2fc	0.039294228
149	0x3e7b12d1	0.24518897
150	0x3f0ac59f	0.54207796
151	0xbe97d599	-0.2965515
152	0xbf0afc08	-0.5429082
153	0xbe65eba8	-0.22453177
154	0xbed92c55	-0.42416635
155	0xbede7e1c	-0.4345559
156	0xbea26d88	-0.3172419
157	0x3e82d742	0.25554854
158	0x3f0ff357	0.5623068
159	0xbea0f4b0	-0.31436682
160	0xbcd37741	-0.0258137
161	0xbe31d615	-0.17366822
162	0xbe7edc1b	-0.24888651
163	0x3efbdbab	0.4919103
164	0x3ed4c12b	0.41553625
165	0x3ea24d17	0.3169944
166	0xbd84b0a8	-0.06479007
167	0xbeec6f54	-0.46178687
168	0xbed4a120	-0.4152918
169	0xbe25a067	-0.1617447
170	0x3e6f45fa	0.23366538
171	0xbdf98ec3	-0.12185433
172	0x3ea8d6e7	0.32976457
173	0x3f702d08	0.9381871
174	0x3ed7f3ce	0.42178196
175	0x3e87c9ab	0.26521048
176	0xbe2e975c	-0.17049927
177	0x3eb0da74	0.34541667
178	0xbedfea90	-0.43733644
179	0xbe4f31b8	-0.2023381
180	0xbe5749b8	-0.21024215
181	0x3eb9363d	0.36174193
182	0x3e239622	0.1597524
183	0xbe8cb9e6	-0.2748558
184	0xbde0373d	-0.10948036
185	0xbe82677e	-0.25469583
186	0xbe9660f5	-0.29370847
187	0xbea35528	-0.31900907
188	0xbea38c2f	-0.3194289
189	0x3eeba602	0.4602509
190	0x3f14e917	0.58168167
191	0xbed47604	-0.4149629
192	0xbe3b0f04	-0.18267447
193	0xbede5477	-0.43423817
194	0x3da7af65	0.08187751
195	0xbe67a51e	-0.22621581
196	0x3f19ce19	0.60080105
197	0x3edebb73	0.43502387
198	0x3ee46c00	0.44613647
199	0x3ef01e52	0.46898133
200	0x3ef3e3a6	0.4763462
201	0xbd889999	-0.066699214
202	0x3e9138d4	0.2836367
203	0x3f1d6b1d	0.61491567
204	0xbed1b683	-0.40959558
205	0x3ed8686d	0.4226717
206	0x3f244fe1	0.64184386
207	0xbe2e0f24	-0.16997963
208	0x3f1ba901	0.60804754
209	0x3f261524	0.6487601
210	0x3f3ec49a	0.7451874
211	0x3e8f2684	0.27959073
212	0x3ee9f092	0.45691353
213	0x3efae82c	0.49005258
214	0xbed97df5	-0.4247891
215	0x3e76c46d	0.24098368
216	0xbef79d97	-0.4836242
217	0xbeaad2ba	-0.33363897
218	0x3ec00d8c	0.37510335
219	0xbdf4b128	-0.119478524
220	0xbe9dc530	-0.30814505
221	0xbe9b511f	-0.30335328
222	0x3ec6b439	0.38809374
223	0x3eb3984e	0.35077137
224	0x3dd60110	0.104494214
225	0xbe1b2a0e	-0.15152761
226	0xbe10ffde	-0.14160106
227	0x3e9bbc7a	0.30417234
228	0x3d931451	0.071816094
229	0x3f2ae02d	0.66748315
230	0x3e937935	0.2880341
231	0xbe25f98d	-0.16208477
232	0x3e3a7212	0.18207577
233	0xbe4d9c14	-0.2007907
234	0x3ed4900f	0.41516158
235	0xbf3bc101	-0.73341376
236	0xbe89c544	-0.26908314
237	0x3eff0d80	0.49814987
238	0xbe3558f7	-0.17709719
239	0x3ef0b39f	0.4701204
240	0x3f038359	0.51372296
241	0x3e7da1b8	0.24768722
242	0x3f18178a	0.5941092
243	0xbb1535c0	-0.0022767633
244	0x3daa4212	0.08313383
245	0xbe74ce02	-0.2390671
246	0xbe4dbe67	-0.20092164
247	0xbded72a7	-0.11594134
248	0xbdfc2691	-0.123120435
249	0x3d8c19c0	0.06840849
250	0xbdedcef6	-0.1161174
251	0xbd7030e0	-0.05864036
252	0x3cc6df82	0.024276499
253	0x3d93bdec	0.07213959
254	0x3da92d30	0.08260572
255	0xbdcbb238	-0.09946102

l1.bias f4 [8]
0	0x3f6e381b	0.9305436
1	0x3f77f5de	0.9685954
2	0x3f4f2389	0.809136
3	0x3f3b98a0	0.7327976
4	0xbdbe4229	-0.09289963
5	0x3eab2f1c	0.3343438
6	0x3ebaadf9	0.36460856
7	0x3f474339	0.7783695

l2.weight f4 [8, 8]
0	0xbe80c4e2	-0.2515021
1	0xbea7c817	-0.32769844
2	0xbf5bd9eb	-0.8587939
3	0x3f88a78c	1.0676131
4	0xbeb29f34	-0.34887087
5	0x3f814804	1.0100102
6	0x3f845db1	1.0341092
7	0x3f25203e	0.6450232
8	0x3f885f0c	1.0654006
9	0x3ebf383a	0.37347585
10	0x3fa0c3a0	1.25597
11	0x3f347ba9	0.7050119
12	0x3e3ce576	0.18446907
13	0xbf54274b	-0.82872456
14	0x3ead3e0f	0.3383641
15	0xbf3487a5	-0.7051948
16	0x3f958d0d	1.168367
17	0x3fa3e05a	1.2802842
18	0x3f998d63	1.1996273
19	0x3f4b6aeb	0.7946002
20	0x3e58dc7a	0.21177855
21	0xbe3ac8ae	-0.18240616
22	0xbf6f4e58	-0.9347892
23	0xbe388c1b	-0.18022196
24	0xbeab37cc	-0.33441007
25	0x3f70f367	0.941214
26	0x3d92db16	0.071706936
27	0x3db48ef8	0.088163316
28	0x3db9d2be	0.09073399
29	0x3e5a4290	0.21314454
30	0xbf300769	-0.68761307
31	0x3f8f08df	1.1174582
32	0xbed50c9a	-0.41611177
33	0x3df5a166	0.11993675
34	0x3f956711	1.1672078
35	0xbf85fc3c	-1.0467601
36	0xbea72028	-0.3264172
37	0x3f1bc9b7	0.6085467
38	0x3f0cd423	0.55011195
39	0x3efdbf3b	0.4955996
40	0x3f82dfa5	1.0224501
41	0x3e30e975	0.17276557
42	0xbf5145e0	-0.81747246
43	0xbee3d42f	-0.4449782
44	0x3d997740	0.07493448
45	0xbe497668	-0.19674075
46	0x3ee22a3c	0.44172847
47	0x3f1b7685	0.6072772
48	0x3f50e79a	0.81603396
49	0xbf952ebd	-1.1654888
50	0x3ce26aa1	0.027638735
51	0xbea19f6e	-0.31566948
52	0x3da9eee1	0.08297516
53	0x3f3a55e7	0.72787327
54	0x3f83fd73	1.0311722
55	0xbe387d7b	-0.18016617
56	0x3eb415be	0.35172838
57	0x3f8916ec	1.071012
58	0xbdd2e631	-0.10297812
59	0xbf979513	-1.1842369
60	0x3e01069a	0.12600175
61	0xbe68dedc	-0.22741264
62	0x3ec6ae20	0.38804722
63	0x3fac7efc	1.3476253

l2.bias f4 [8]
0	0x3d93a002	0.072082534
1	0x3f2c0301	0.67192084
2	0x3f0ec0da	0.5576302
3	0x3ed37323	0.4129878
4	0xbe812380	-0.25222397
5	0xbcc1fe81	-0.023680927
6	0x3ea6c4da	0.3257206
7	0x3d322798	0.04349479

l3.weight f4 [7, 8]
0	0x3f017220	0.50564766
1	0xbf69cc97	-0.91327804
2	0x3de1ef8d	0.11032019
3	0x3f2153ab	0.6301829
4	0xbf292c6b	-0.660834
5	0xbed13275	-0.40858808
6	0xbf54ac8f	-0.83075804
7	0xbf760f37	-0.96116966
8	0xbe66dd23	-0.22545294
9	0xbed0299f	-0.40656754
10	0xbf2076ee	-0.6268147
11	0xbf3a6c84	-0.7282183
12	0xbdc30009	-0.09521491
13	0x3f301153	0.68776435
14	0x3e833a43	0.25630388
15	0x3f1432fb	0.5789029
16	0xbfca6315	-1.5811487
17	0xbda32645	-0.07966284
18	0x3ec618d9	0.38690832
19	0x3ee147d9	0.44000128
20	0xbfc7772a	-1.5583241
21	0x3ee69679	0.45036677
22	0xbf820878	-1.0158834
23	0x3ea20a68	0.31648564
24	0xbf773e21	-0.96579176
25	0x3f325dce	0.69674385
26	0x3f669c01	0.90081793
27	0xbe3075d9	-0.17232455
28	0xbf30deab	-0.69089764
29	0xbf5e6d6b	-0.8688571
30	0xbf8a61dc	-1.0811114
31	0xbfd8cb3b	-1.6937021
32	0x3f5fae68	0.873755
33	0xbe7a3f7f	-0.24438284
34	0xbf41ba7b	-0.7567517
35	0xbf70454a	-0.93855727
36	0xbf305c95	-0.6889127
37	0xbf74545c	-0.9544122
38	0x3ea594ce	0.3234009
39	0xbf758449	-0.95904976
40	0xbe9c2504	-0.3049699
41	0x3e3fb667	0.18721925
42	0x3db9cb2d	0.09071956
43	0xbf88a72f	-1.067602
44	0x3f3ce445	0.7378581
45	0x3e6d2cf5	0.23161681
46	0x3f2a4a73	0.6651985
47	0xbf98e41d	-1.1944615
48	0xbf59510b	-0.84889287
49	0xbe7a9b04	-0.24473196
50	0xbdc08d5f	-0.094019644
51	0x3e456f38	0.19280708
52	0x3f82c701	1.0216981
53	0xbfce1267	-1.6099366
54	0xbf284ad9	-0.6573921
55	0x3ece11b8	0.40247893

l3.bias f4 [7]
0	0xbed429f3	-0.41438255
1	0xbd971e9b	-0.073788844
2	0xbd0e6c75	-0.0347714
3	0x3c2acdab	0.010425012
4	0x3e7bbaaf	0.24582933
5	0x3db2e2f0	0.08734691
6	0xbdd63b84	-0.104605705
