chatbot/resource/pthFile/low.pth (torch, 6815 bytes, 6 tensors)

l1.weight f4 [8, 85]
0.033821523 0.03817267 0.033845447 -0.030159986 -0.026243143 0.014894711 0.02366236 -0.028618574
0.0058085844 -0.04601577 0.025205603 0.090985045 -0.006800495 -0.034506362 -0.012408696 -0.10272091
0.021737682 -0.062496066 -0.013686946 -0.026533611 -0.10515061 0.028834991 0.008692143 -0.05913483
0.013545677 -0.025073744 0.030974634 -0.035916254 -0.04619939 0.03353133 -0.10264953 -0.047448017
-0.08918691 -0.10954765 0.015111081 0.058652267 -0.010693409 -0.045840487 0.062163312 -0.026136905
-0.04120806 0.04486521 -0.101258606 0.057487972 0.0013830513 -0.08845328 0.037857674 0.06043224
-0.009343907 0.10969922 -0.028139696 -0.03195508 0.04740537 0.02439893 -0.019122273 0.083219804
-0.118401855 0.066500194 0.023590555 0.00049727305 -0.0122848 0.015381306 -0.05005608 -0.051204443
0.040826164 0.05743056 -0.04060092 0.0018609044 -0.06508385 -0.058056172 0.034122877 0.032125123
-0.046002075 -0.009438328 -0.049220897 0.092057645 -0.10214122 -0.064240046 -0.07918252 -0.035389625
-0.01367502 0.036438223 -0.0018414482 -0.013826424 -0.095154285 0.33952883 -0.26997533 0.6922951
-0.07430913 -0.20313597 0.21919206 0.38440126 0.6591095 0.79519224 0.32026687 -0.566309
0.41182396 0.022664152 0.444021 -0.019695338 0.05338971 -0.37621042 -0.1613635 -0.6987473
-0.04723761 0.28824693 0.6276436 0.23151141 0.007872928 -0.3618261 0.009738384 0.011229455
0.5545933 -0.07111008 1.0399534 0.2603342 0.10743883 -0.36260676 -0.435536 -0.31549716
0.30316073 -0.23524268 -0.1608981 0.66121244 -0.19188449 -0.107113265 0.64127207 0.5807367
-0.04167509 -0.1924024 -0.22872661 0.6835987 -0.07924476 0.68706924 0.17969947 0.10786217
0.5476947 0.79376405 -0.15805587 0.057776496 -0.4721186 0.45763046 -0.47259715 -0.63448864
0.014879978 -0.29143396 0.72055846 -0.05142747 -0.33702886 0.3141499 -0.009074166 -0.15086676
-0.23613907 0.16279711 -0.46573848 -0.2631424 -0.12166288 -0.86406714 -0.23258226 0.47045
-0.05966803 0.59546393 0.68247306 0.5309351 0.48413658 0.22107582 0.22476757 0.3333055
-1.1625196e-05 -0.30697605 0.37049618 -0.3875778 -0.03778232 -0.1683821 0.42913553 0.15382266
0.050309952 -0.014375099 0.16843794 -0.15396826 -0.01759084 0.5835496 0.14178377 0.31784558
-0.15876548 0.3292561 -0.012141612 -0.31391492 -0.40384552 -0.0127670225 -0.14860103 0.07892853
0.700991 0.36904854 -0.3381755 0.2934459 0.40954486 0.054102693 0.119996265 0.9375236
0.42646554 0.5829648 -0.66355526 0.5574268 -0.55889636 -0.009114492 0.5621927 0.61722594
0.6740208 0.51436186 0.038380332 0.7557952 -0.030448562 -0.3631141 0.15347657 1.0694369
0.48706457 1.0063434 0.121601865 0.08244483 0.1465991 0.1614513 0.63127804 0.047135714
-0.22659476 0.6562032 0.4951508 1.0652758 0.976904 0.56400734 0.5281011 0.47493526
0.54594797 0.09639738 -0.037129294 0.51671904 -0.0629346 0.97323585 -0.13823968 -0.066193454
0.36986327 -0.3434131 -1.1800545 -0.35650665 0.11643468 0.35635826 0.16211137 0.07831492
0.10632322 0.26004776 0.45620465 0.4810925 0.083349094 0.09702011 0.5351542 0.021703236
00000000: 7088 0a3d f25a 1c3d 86a1 0a3d 1312 f7bc
00000010: dcfb d6bc f208 743c 91d7 c13c 8071 eabc
00000020: f055 be3b 087b 3cbd fb7b ce3c 5e56 ba3d
00000030: b0d6 debb 8b56 0dbd d84d 4bbc 575f d2bd
00000040: 3913 b23c e0fb 7fbd 363f 60bc 045d d9bc
00000050: 3459 d7bd 5c37 ec3c 7d69 0e3c 5d37 72bd
00000060: b0ee 5d3c 7467 cdbc 84be fd3c ec1c 13bd
00000070: 923b 3dbd 2658 093d eb39 d2bd da58 42bd
00000080: a0a7 b6bd 855a e0bd 7894 773c 5c3d 703d
00000090: 6833 2fbc 3cc3 3bbd f59e 7e3d 101d d6bc
000000a0: c8c9 28bd 95c4 373d ac60 cfbd 8278 6b3d
000000b0: 8047 b53a fe26 b5bd a610 1b3d cc87 773d
000000c0: 3017 19bc fca9 e03d 3885 e6bc 54e3 02bd
000000d0: 222c 423d 44e0 c73c 50a6 9cbc 256f aa3d
000000e0: ac7c f2bd 4131 883d fb40 c13c 6e5b 023a
000000f0: 3046 49bc e001 7c3c 9b07 4dbd c0bb 51bd
00000100: 5639 273d 4f3c 6b3d 264d 26bd 97e9 f33a
00000110: ae4a 85bd 4fcc 6dbd 6ec4 0b3d a295 033d
00000120: ac6c 3cbd 38a3 1abc da9b 49bd b888 bc3d
00000130: 6a2f d1bd 4990 83bd 722a a2bd b6f4 10bd
00000140: 310d 60bc 3f40 153d c05c f1ba 3a88 62bc
00000150: 40e0 c2bd b9d6 ad3e 353a 8abe 403a 313f
00000160: 632f 98bd e002 50be e273 603e 3ed0 c43e
00000170: 66bb 283f b891 4b3f 05fa a33e a0f9 10bf
00000180: 97da d23e 2caa b93c b856 e33e 1e58 a1bc
00000190: 2baf 5a3d a79e c0be 793c 25be 1ae1 32bf
000001a0: 397c 41bd 1a95 933e 40ad 203f 5411 6d3e
000001b0: 74fd 003c 4541 b9be be8d 1f3c bffb 373c
000001c0: d4f9 0d3f 29a2 91bd 311d 853f 864a 853e
000001d0: e408 dc3d 98a7 b9be 93fe debe d888 a1be
000001e0: e237 9b3e 75e3 70be 79c2 24be 3845 293f
000001f0: 5e7d 44be 335e dbbd 682a 243f 29ab 143f
00000200: 80b3 2abd 2205 45be 4f37 6abe 5300 2f3f
00000210: 144b a2bd c5e3 2f3f 2303 383e d7e6 dc3d
00000220: b835 0c3f 1f34 4b3f 66d9 21be 0ca7 6c3d
00000230: 87b9 f1be 8a4e ea3e 41f8 f1be d96d 22bf
00000240: 27cb 733c d536 95be 8576 383f 9ca5 52bd
00000250: 0c8f acbe 41d8 a03e d0ab 14bc d17c 1abe
00000260: 71ce 71be 49b4 263e 4675 eebe 9aba 86be
00000270: 632a f9bd 8133 5dbf 0b2a 6ebe d3de f03e
00000280: 7766 74bd 5370 183f 8eb6 2e3f 5deb 073f
00000290: c0e0 f73e b361 623e 7829 663e 05a7 aa3e
000002a0: d609 43b7 f72b 9dbe adb1 bd3e 9970 c6be
000002b0: a2c1 1abd 5b6c 2cbe a7b7 db3e b083 1d3e
000002c0: cf11 4e3d 8985 6bbc ff7a 2c3e dba9 1dbe
000002d0: aa1a 90bc 8263 153f c42f 113e a8bc a23e
000002e0: 6b93 22be 4194 a83e 9ded 46bc 75b9 a0be
000002f0: d7c4 cebe c62c 51bc de2a 18be 48a5 a13d
00000300: 2574 333f eef3 bc3e 5725 adbe 8a3e 963e
00000310: ddaf d13e c99a 5d3d 9ac0 f53d 8c01 703f
00000320: b159 da3e 2e3d 153f c2de 29bf 86b3 0e3f
00000330: d513 0fbf f354 15bc dceb 0f3f 8502 1e3f
00000340: a18c 2c3f 38ad 033f b234 1d3d cb7b 413f
00000350: 436f f9bc 17ea b9be f628 1d3e 4fe3 883f
00000360: 8760 f93e dccf 803f 660a f93d d6d8 a83d
00000370: 131e 163e 7d53 253e 709b 213f 6111 413d
00000380: 7508 68be effc 273f 6884 fd3e f55a 883f
00000390: 6116 7a3f c962 103f a231 073f b72a f33e
000003a0: 3fc3 0b3f fd6b c53d e314 18bd b347 043f
000003b0: dbe3 80bd fc25 793f b48e 0dbe 6f90 87bd
000003c0: b85e bd3e d8d3 afbe 070c 97bf 0a88 b6be
000003d0: 4e75 ee3d 9774 b63e 8600 263e 9363 a03d
000003e0: fdbf d93d fb24 853e a893 e93e c251 f63e
000003f0: eeb2 aa3d 7bb2 c63d deff 083f fcca b13c

l1.bias f4 [8]
-0.12381446 0.863941 1.0829948 0.8724202 0.59097326 0.7910347 0.98080707 0.515029
00000000: 7092 fdbd 3d2b 5d3f 939f 8a3f ee56 5f3f
00000010: 064a 173f 4081 4a3f 2c16 7b3f f1d8 033f

l2.weight f4 [8, 8]
0.20515385 0.9699184 0.26798055 -0.88262045 1.6825297 0.54851407 0.28458065 2.0565586
0.060356766 1.5526534 -0.17248054 0.24891543 -0.31310496 0.03764423 1.6528027 0.7087336
-0.10902108 1.4890307 1.5238758 1.2198439 -0.657432 -0.9374721 0.27341732 -0.49509698
-0.14518675 -0.45266318 -0.21568571 1.5254381 0.09138683 1.0859228 1.4981775 -0.23062904
-0.28245032 0.29165146 1.382991 -1.3240098 0.6501293 -0.58959866 -0.27463526 -0.044878576
-0.05420649 0.20834093 1.0862337 -0.93787086 1.4628541 1.9125316 -1.2906314 0.4284222
-0.12928642 -0.19946922 -0.22432537 -0.29375464 -0.048341334 -0.02489239 0.042967618 0.21051684
-0.021097153 1.3248396 0.5118417 -1.3045396 -0.9804045 0.7226997 -0.5637128 0.17517485
00000000: da13 523e 924c 783f bf34 893e 6af3 61bf
00000010: 225d d73f 6b6b 0c3f 8eb4 913e a89e 0340
00000020: a838 773d 59bd c63f bd9e 30be b0e3 7e3e
00000030: 4b4f a0be d630 1a3d 0a8f d33f 916f 353f
00000040: 7246 dfbd 8f98 be3f 5d0e c33f d823 9c3f
00000050: 774d 28bf 2cfe 6fbf 5bfd 8b3e 5a7d fdbe
00000060: d6ab 14be 78c3 e7be b7dc 5cbe 8e41 c33f
00000070: 0529 bb3d 85ff 8a3f 48c4 bf3f 052a 6cbe
00000080: 549d 90be 5753 953e d905 b13f 2779 a9bf
00000090: e06e 263f f0ef 16bf fe9c 8cbe 99d2 37bd
000000a0: a007 5ebd 5357 553e b509 8b3f 4e18 70bf
000000b0: ce3e bb3f d6cd f43f 6933 a5bf 285a db3e
000000c0: a963 04be a941 4cbe 8db5 65be 0267 96be
000000d0: 9001 46bd 20eb cbbc d0fe 2f3d ba91 573e
000000e0: f0d3 acbc 5894 a93f 0f08 033f 27fb a6bf
000000f0: cafb 7abf d902 393f 7b4f 10bf 0961 333e

l2.bias f4 [8]
-0.3427699 -0.22983336 -0.5423557 1.1409583 0.66379225 0.3851309 -0.27637488 -0.004932171
00000000: 897f afbe 7059 6bbe d3d7 0abf ec0a 923f
00000010: 4aee 293f e12f c53e 0281 8dbe 0d9e a1bb

l3.weight f4 [11, 8]
-0.7236197 -0.30643064 0.3943218 -2.1380496 0.48592377 -0.0995239 0.029161245 0.8795422
0.5431611 0.2979849 -1.9862541 0.058445796 -1.6928495 -1.6478243 -0.23681113 -0.633341
0.46883437 -2.20631 -1.7813221 -1.3851937 0.22706378 0.86753035 -0.3138423 -0.6782451
0.31870553 0.1557989 -2.3416717 -0.65694135 -0.018388148 0.36492392 0.3424625 0.05927174
-1.9508166 0.44799253 0.88697386 0.14117089 -1.569355 -0.8150015 -0.09353426 -0.42774686
-0.005995596 0.07249561 -0.03866979 -1.3782347 -0.9669246 -0.04785193 0.22057799 0.64649445
0.11218086 0.5829416 0.64194196 -1.0457911 -0.1391277 -1.442958 -0.012740016 -0.96924657
-0.081160754 -1.5793606 0.6376342 -1.1150757 1.0923059 0.30066764 0.13600114 -1.7719833
-2.0011446 0.27298376 -2.0353184 1.2206047 -0.31790546 -1.2450986 -0.26480943 -0.13265747
-0.5549103 -2.1497152 -0.9235112 0.7827408 -1.2112023 0.6020272 -0.2517142 -0.7450024
0.22627413 0.16025437 0.030147364 -0.5846438 -2.437176 0.37982363 -0.19345778 -1.5218726
00000000: 243f 39bf 7ae4 9cbe 8ce4 c93e ced5 08c0
00000010: 00cb f83e 30d3 cbbd 90e3 ee3c ad29 613f
00000020: 9b0c 0b3f 7a91 983e 933d febf dc64 6f3d
00000030: 4baf d8bf e8eb d2bf 9e7e 72be a322 22bf
00000040: 0f0b f03e 2f34 0dc0 5d02 e4bf 074e b1bf
00000050: 6883 683e 7816 5e3f f0af a0be 79a1 2dbf
00000060: 5f2d a33e bf89 1f3e f3dd 15c0 4f2d 28bf
00000070: bea2 96bc 4fd7 ba3e 3f57 af3e edc6 723d
00000080: 5cb4 f9bf 475f e53e b810 633f 1a8f 103e
00000090: a0e0 c8bf f0a3 50bf e48e bfbd a301 dbbe
000000a0: b476 c4bb 9478 943d 3764 1ebd ff69 b0bf
000000b0: 5f88 77bf 6300 44bd 32df 613e a980 253f
000000c0: 14bf e53d a93b 153f 4f56 243f 7cdc 85bf
000000d0: 7e77 0ebe d9b2 b8bf 80bb 50bc 8b20 78bf
000000e0: 9c37 a6bd 7d28 cabf ff3b 233f cdba 8ebf
000000f0: aed0 8b3f 1cf1 993e e243 0b3e 59d0 e2bf
00000100: c112 00c0 87c4 8b3e a842 02c0 c63c 9c3f
00000110: 81c4 a2be 645f 9fbf 1a95 87be 5cd7 07be
00000120: 9a0e 0ebf ef94 09c0 3b6b 6cbf b361 483f
00000130: ad08 9bbf 741e 1a3f afe0 80be 7ab8 3ebf
00000140: 68b4 673e b919 243e 9bf7 f63c 37ab 15bf
00000150: b1fa 1bc0 3e78 c23e cc19 46be b9cc c2bf

l3.bias f4 [11]
-0.18667209 0.028805826 -0.4965494 -0.11163418 0.2778547 -0.48463187 -0.2879488 0.1279816
0.9560434 0.4229153 -0.59678614
00000000: f826 3fbe 32fa eb3c b93b febe 76a0 e4bd
00000010: f942 8e3e ab21 f8be 066e 93be 9c0d 033e
00000020: 43bf 743f 5b88 d83e fac6 18bf
