chatbot/resource/pthFile/middle.pth (torch, 5535 bytes, 6 tensors)

l1.weight f4 [8, 58]
000000 4f d7 10 3f 61 71 4b 3f e2 49 90 be c7 f3 9c 3c
       0.56578535 0.7946988 -0.28181368 0.01915921
000010 c7 34 3d bd 29 8d ee 3e 7c 8b 16 be b0 60 94 be
       -0.04619291 0.46592072 -0.14701647 -0.28980017
000020 ad f4 79 be 6a 1d 4c bd d3 cb de 3c cb ca 92 bc
       -0.24409743 -0.04983274 0.0271968 -0.017918965
000030 b7 08 02 be 95 23 d7 bb 80 b0 26 be c8 4e f6 3e
       -0.12698637 -0.006565521 -0.16278267 0.4810698
000040 11 e5 03 3e a8 60 16 bd 4e b6 de 3e 36 f4 a4 bd
       0.1288035 -0.036713272 0.43498462 -0.08054392
000050 a2 6f 8f be ec 01 24 3f 02 68 3b be bb 6c e4 be
       -0.28014857 0.6406543 -0.18301395 -0.44614205
000060 d0 17 35 3e 89 e5 66 bd 70 19 9f 3c dd ac 6e be
       0.17684865 -0.056371246 0.01942131 -0.2330813
000070 ba 76 4e 3f ba 58 e0 bd 98 10 0f 3f b0 aa a9 3e
       0.8064991 -0.10954423 0.55884695 0.33138037
000080 ce 68 ec bd 0e 33 43 3e f1 1d 96 be f3 a2 3d 3f
       -0.115434274 0.19062445 -0.29319718 0.74076766
000090 6d 70 0e 3e ae d2 e8 bd 65 cd d2 be d8 5a d6 ba
       0.13910075 -0.11368309 -0.4117233 -0.0016353978
0000a0 61 fe 31 be d3 3c 9d bd 2e 00 1a 3e 2a 19 82 be
       -0.17382194 -0.07677617 0.15039131 -0.25409824
0000b0 2d 71 eb bd 76 7f 00 3f f8 45 71 be 4a 64 3e 3f
       -0.11496196 0.5019449 -0.23561847 0.7437178
0000c0 c7 13 32 be 3e b5 76 3f 79 ab ef 3e 5e 19 d5 3d
       -0.17390357 0.96370304 0.4681051 0.10405229
0000d0 98 2c b4 bd f3 bc 90 be 6a f4 1c 3e 2d e0 85 be
       -0.08797568 -0.28269157 0.15327612 -0.26147595
0000e0 c2 4a e6 bd 2c 30 59 3e 7f f5 57 be ba 5b ec be
       -0.11244728 0.21209782 -0.21089743 -0.46163732
0000f0 6e e9 e6 be a8 ed 95 3e 97 50 0d 3f bf 52 cd be
       -0.45099968 0.2928288 0.55201095 -0.40102193
000100 cc e0 fa bc dc e3 32 be 30 de de be 6b 59 c5 be
       -0.03062477 -0.17469734 -0.4352889 -0.38544783
000110 09 1f b3 3e 97 96 f6 3e fe e2 13 3f 79 fc 79 3e
       0.34984615 0.48161766 0.5776824 0.24412717
000120 14 71 b1 3e a7 81 fd bd 50 0e a8 3e c7 20 dd 3e
       0.34656584 -0.12378245 0.3282342 0.4318907
000130 82 0a c5 be 4c 42 06 3f f3 28 0e 3f ca 57 7c be
       -0.3848458 0.5244491 0.55531234 -0.24642864
000140 64 a9 0f 3f 3a 09 d6 3e f6 aa 3d 3f 84 e3 c4 3e
       0.56117845 0.41803914 0.7408899 0.3845483
000150 55 97 ed 3e df 97 f0 3e 8e 88 c0 be 78 c6 00 3f
       0.4640452 0.46990868 -0.37604183 0.5030284
000160 a9 cd ce be 55 dc d3 be 34 cc a0 3e b8 84 8f bc
       -0.4039128 -0.41379037 0.31405795 -0.01751934
000170 ee 4f 05 bf d4 9f db bd ff f7 20 3e 22 f9 d1 3e
       -0.5207509 -0.10723844 0.15719603 0.41010386
000180 75 2c e8 be 34 53 6c bd f6 6a 68 3d 9d 09 b4 3e
       -0.45346418 -0.057696536 0.05674263 0.35163584
000190 f3 fe b9 bc 9e 38 e5 3e 9e 43 aa 3e fc 06 32 be
       -0.022704577 0.44769758 0.33254713 -0.17385477
0001a0 e2 e0 91 3e 30 ce 3e be 30 69 b9 3e 94 1a 26 bf
       0.28491884 -0.18633342 0.36213064 -0.64884305
0001b0 3a 56 09 be b9 61 0d 3f c3 f5 6f 3e 11 d9 27 3f
       -0.13411799 0.5522724 0.23433594 0.6556559
0001c0 74 1a 34 3e c7 50 b5 3e 42 d1 6c bc 9f 0b 95 3d
       0.17588216 0.3541319 -0.014454188 0.07277607
0001d0 cf d9 2c 3f bc c7 89 3d 9f 5a 15 3f 7e ec 81 3e
       0.6751985 0.067275494 0.583414 0.25375742
0001e0 d2 39 36 3f e3 0f 3a bf ab 2d 03 3f eb 1d a7 3e
       0.71181977 -0.7268049 0.5124156 0.32640013
0001f0 93 f4 91 3e 32 bb e2 3e e3 94 09 3f 18 d7 77 be
       0.28506908 0.44283444 0.5374281 -0.24203146
000200 5b 20 22 3e 09 a7 e1 be 44 ea a2 3e 24 20 84 bd
       0.15832655 -0.4407275 0.31819355 -0.06451443
000210 41 ff a7 be 49 9b c9 3e 6a 13 3a bf c5 92 b1 3e
       -0.3281193 0.39376286 -0.72685874 0.3468229
000220 64 32 22 3f 3f 65 39 3f 85 65 23 3f 00 8d d7 3e
       0.6335814 0.72420114 0.6382678 0.42099762
000230 83 22 b2 3e 39 fd 85 3e 6f c5 e9 3e a9 04 ee 3d
       0.34791955 0.26169756 0.45658442 0.116219826
000240 41 db 14 bf 9e 53 60 bd 7e 82 eb be f2 e4 23 bf
       -0.58147055 -0.054767244 -0.45997995 -0.6402122
000250 c5 cd b7 be d1 7c 0a 3f 86 f7 12 3f d3 0b 43 be
       -0.35899177 0.54096705 0.5740894 -0.1904748
000260 0b 73 94 be 27 62 85 bd e6 e9 03 3f f2 2f 00 3f
       -0.2899402 -0.06512862 0.51528776 0.5007316
000270 12 55 1f 3f 47 20 5b 3e 5c 62 8d be 4c 38 53 3e
       0.6223918 0.21399032 -0.27614105 0.20626944
000280 b9 df 80 be 28 cc 12 be 6e c9 c0 bc f8 ac 81 be
       -0.25170687 -0.14335692 -0.02353355 -0.25327277
000290 e7 f2 de 3e 25 28 9f 3f a1 28 39 3f 7a e3 ce 3e
       0.43544695 1.2434126 0.7232762 0.40407926
0002a0 5e be c0 3e 06 36 9f 3e ba e9 92 be bd 72 8d 3e
       0.3764524 0.31095904 -0.28693944 0.276266
0002b0 61 8d 13 3f da 08 9c 3e 05 39 24 be af 79 17 bf
       0.576376 0.30475503 -0.16037376 -0.5917005
0002c0 3e c1 23 be 8c 5f 8a 3e 02 43 bd 3e f1 87 ef bd
       -0.15991685 0.2702602 0.36965185 -0.11695851
0002d0 95 dd 37 be 3a bf e0 be 6a 39 03 3d 25 77 c6 be
       -0.1795562 -0.43895894 0.032037176 -0.38762775
0002e0 e4 0c d4 3e 0f fe 29 3f d0 93 2b 3f 64 44 06 3f
       0.41416085 0.6640329 0.6702242 0.52448106
0002f0 87 5a 46 3e 94 d3 52 be cd 85 b6 3e 38 52 04 3f
       0.19370471 -0.20588523 0.35648957 0.51687956
000300 8b 91 dd bd a3 f2 e8 3e 74 af fd 3e 9c 90 a9 be
       -0.10818776 0.45497617 0.49547923 -0.3311814
000310 c7 34 23 3f 38 f6 27 3f c3 a0 2f 3f b0 ae d4 3e
       0.63752407 0.65610075 0.6860468 0.41539526
000320 b6 d4 19 3e 77 39 27 3f 4e 4a 15 bf 5e 59 88 3e
       0.15022549 0.6532206 -0.58316505 0.26630682
000330 10 a2 07 bf 4b bc 29 be 30 ad d2 3e 73 d9 fc bd
       -0.5298166 -0.16575734 0.41147757 -0.12346163
000340 d6 50 0b 3d 18 6a 4f be 2f 55 04 3f 88 e0 6e 3e
       0.034012638 -0.20255315 0.5169248 0.2332784
000350 ff 8c eb bd 92 cc c2 bd 85 8c e5 38 16 bd 7b 3e
       -0.11501502 -0.09511675 0.00010945745 0.2458385
000360 26 0b 73 3d 00 a0 0f 3f e2 92 cf 3e 2c 32 85 be
       0.059336804 0.56103516 0.4054175 -0.2601484
000370 cd 80 ef 3e 3f d0 08 be 6e 15 6f 3e ee 45 4d bf
       0.46777955 -0.1336069 0.23348019 -0.8018483
000380 54 e1 9e be 2b 28 88 3e 23 36 22 3e 53 52 15 3f
       -0.31031287 0.26593146 0.15840964 0.5832874
000390 87 b3 f9 3e 1b 60 0f 3f db 3e 11 be 02 b0 6d 3e
       0.4876978 0.5600602 -0.14184134 0.23211673
0003a0 07 7f de 3e 3a ff 88 be a1 73 aa 3e 42 a6 9f be
       0.4345629 -0.26757222 0.33291343 -0.31181532
0003b0 a7 76 52 3e 1c 20 7e 3f fd 89 d6 3e 40 26 b7 3e
       0.20553075 0.99267745 0.41902152 0.3577137
0003c0 21 73 0b 3f df b5 66 3e 15 43 ac be f7 97 33 3f
       0.5447255 0.22530316 -0.3364493 0.70153755
0003d0 75 f1 08 3f d7 37 64 3f 94 4d 44 be 77 6c 95 be
       0.53493434 0.89147705 -0.19170219 -0.29184315
0003e0 63 98 0c 3f 17 56 91 be 48 13 54 3f 0a 16 29 3e
       0.54920024 -0.28385994 0.8284192 0.16512313
0003f0 73 f5 10 bf 97 9a e8 3e 95 cf 1e bf e0 1a 10 bf
       -0.56624526 0.45430443 -0.62035495 -0.5629101

l1.bias f4 [8]
000000 99 d6 fa 3e c0 54 17 3f bb 16 3a 3f 03 43 4d 3f
       0.4899185 0.59113693 0.72690934 0.80180377
000010 d5 c6 1e 3f 2a cf 31 3f c4 ee 51 3f a7 6e 23 3f
       0.62022144 0.6945673 0.8200495 0.6384072

l2.weight f4 [8, 8]
000000 80 d4 8b bd ff f3 13 be 78 59 a2 be a8 62 38 3d
       -0.068276405 -0.14448546 -0.31708884 0.04501596
000010 5c 99 6d be 5f 79 ac 3e 5a ef 6f be 14 4d 83 be
       -0.23203033 0.3368635 -0.23431149 -0.25644743
000020 7c fa a0 be bb 0d dc bb 61 f2 ed 3d c0 08 56 be
       -0.31441104 -0.006715504 0.11618496 -0.20901775
000030 67 3a 21 be d3 b0 33 be e8 88 3a 3e af 27 5b be
       -0.15744935 -0.17547922 0.18216288 -0.21401857
000040 62 09 90 3f c7 64 a2 3d 0d 33 23 3f d9 74 56 be
       1.1252863 0.07929378 0.6374977 -0.20943011
000050 79 bc 8a bf 99 cf 05 3f 6c 6c 9c 3f ed 8b 91 3f
       -1.0838767 0.52269894 1.2220588 1.1370827
000060 dc 04 72 bf df 06 b0 3f 69 c4 66 3f 77 8b 98 3f
       -0.94538665 1.3752097 0.9014345 1.1917561
000070 b0 42 ba bd 18 b6 40 3e ef 34 d5 3d 03 56 12 bf
       -0.09094751 0.18819463 0.10410487 -0.57162493
000080 df 9c 94 3f 94 e0 72 bf 36 62 29 bf 13 cd d0 be
       1.1610373 -0.9487393 -0.66165483 -0.4078146
000090 33 ea c6 3f be e5 aa 3e 8d b9 3c 3f a8 b7 18 3f
       1.5540222 0.33378404 0.7372063 0.5965524
0000a0 a6 b2 8e 3f af 53 ea 3d 6f 61 05 3f 9b d4 41 be
       1.1148269 0.11441743 0.52101797 -0.18928759
0000b0 4e f6 8f bf 5c 88 3d 3f e0 51 5f 3f f6 e1 8b 3f
       -1.1247041 0.7403619 0.87234306 1.0928333
0000c0 69 cd c1 3d 69 af 29 be 13 3c c8 3f 61 00 a5 bd
       0.09463007 -0.1657082 1.5643333 -0.08056713
0000d0 3d df 92 3f d0 c8 97 3f 6a a7 7a bf 52 02 5e be
       1.1474377 1.1858158 -0.97911704 -0.21680573
0000e0 d4 ed b7 bd 23 00 dc 3e e6 6f 1e bf cf 21 64 3f
       -0.08980909 0.42968854 -0.61889493 0.8911409
0000f0 a2 ae 6f 3f a2 ca 85 bf 80 c3 70 3f 06 3c 05 be
       0.93625844 -1.0452464 0.9404831 -0.13011178

l2.bias f4 [8]
000000 40 5d a7 be 99 40 b9 bb ba dd 97 3e 58 71 c9 3e
       -0.32688332 -0.0056534526 0.2966135 0.39344287
000010 7f 37 99 3e 3b 8c 95 3e a1 e9 25 3f 6f 06 64 3e
       0.29925153 0.2920855 0.64809614 0.22268079

l3.weight f4 [7, 8]
000000 13 3f 07 be b4 93 64 3e 81 68 46 bf 6a 67 e3 3e
       -0.13207655 0.2232197 -0.7750321 0.44414836
000010 88 11 81 bd 3d a6 19 bf 8c 37 a3 bf b9 31 12 3f
       -0.06302172 -0.60019284 -1.2751327 0.5710712
000020 82 ac e8 bd 8a 34 b5 be 5f 9a e2 3e 6e 43 50 bf
       -0.11361028 -0.35391647 0.442584 -0.8135289
000030 18 f3 16 3f 38 66 12 3f cb 53 98 bf df 5e d6 bf
       0.5896468 0.57187223 -1.1900572 -1.6747702
000040 a0 f1 b9 3d 15 58 58 3e 36 e6 25 3e bd 25 a2 bf
       0.090792894 0.2112735 0.162011 -1.2667767
000050 50 54 d3 3e b3 1e 64 3e dc 50 14 bf 4c 39 2a 3f
       0.41275263 0.22277336 -0.5793588 0.6649368
000060 0a f9 4a 3e d1 24 ab be 7b d0 2b 3f 10 f6 ea 3e
       0.19821563 -0.33426526 0.6711499 0.45890856
000070 14 5e 9b bf a1 ec 2c 3f 45 1c 78 be ec 3d 8a bf
       -1.2138085 0.6754857 -0.24229534 -1.0800147
000080 d2 04 50 be 11 7a 83 3e a6 a8 72 bf a0 98 48 3f
       -0.20314339 0.25679067 -0.9478859 0.7835789
000090 e5 33 c1 bf ab 84 37 bf 5c 8e 32 be 81 05 72 3d
       -1.5093962 -0.7168681 -0.17437118 0.05908728
0000a0 1a 8b 06 3e 91 26 a4 bd 40 30 33 bf da 3e 4b 3e
       0.13139 -0.080151685 -0.699955 0.19848195
0000b0 15 0b 7e be df 06 c9 be 57 e5 29 3f e8 c5 d3 bf
       -0.24808915 -0.39263055 0.6636557 -1.6544771
0000c0 4e 13 5c be 11 44 5b 3e c1 a3 82 3e 21 fc 8e bf
       -0.21491739 0.21412684 0.2551556 -1.1170694
0000d0 5d a0 af 3c 5b 0d d5 3e 4a 4c f7 3e 46 61 96 bf
       0.021438772 0.41611752 0.4830039 -1.1748435

l3.bias f4 [7]
000000 b1 2f d8 be cf 2a 19 bf 15 b7 32 3e 8f af f3 bd
       -0.42223886 -0.59830946 0.17452653 -0.118987195
000010 65 b7 08 3e 72 44 a7 3e 14 5f ec bd
       0.1335121 0.32669407 -0.11541572
