chatbot/data.pth (torch, 5535 bytes, 6 tensors)

l1.weight f4 [8, 58]
0.556312 -0.30664682 0.4134277 0.34132934 0.3889599 -0.5697046 0.47500533 0.3762036
0.4310083 0.4759554 0.26683795 -0.28815532 0.3987113 -0.40886965 0.07624425 -0.15172262
-0.17779855 0.26223186 -0.56980056 0.5569161 0.3242378 0.4484635 0.2912 0.3671826
0.1571774 -0.018181404 0.10737348 0.6251611 -0.4124596 0.46552408 -0.5387948 -0.47860655
-0.31929523 0.4736085 0.50843513 -0.18007176 -0.13908775 0.47631073 0.47602248 0.52585864
0.54416835 0.23047633 -0.35903135 0.5758716 -0.28811988 -0.16245422 0.2890718 -0.07604443
0.14777412 1.1060159 0.45920506 0.4020319 0.23814192 0.6609233 -0.27025798 0.5930033
0.4944283 0.5182077 0.14958636 0.39962795 -0.3391326 0.15654173 -0.10516748 0.6798742
-0.17923053 -0.25554267 -0.51950735 -0.12933446 0.015043328 -0.17315087 -0.31811637 -0.28079417
0.07393027 0.19307208 -0.04389222 0.15309216 0.64170617 -0.24703677 0.13362664 0.3875026
0.079956174 0.12750606 0.20461757 -0.18185662 0.24008934 -0.1943871 0.27080795 -0.15185873
0.3465385 0.65234184 -0.21799164 -0.0382828 -0.3609532 0.09404085 -0.06230448 -0.2093541
-0.39338768 -0.1627549 -0.19959657 0.14065365 0.61298406 -0.2897465 -0.17388016 0.29272702
-0.31491968 0.29975066 0.30352354 0.6746076 0.22278675 0.24253477 0.23246115 -0.4104618
-0.0034353673 -0.25860515 -0.0587637 0.23601994 -0.2463071 0.48657227 0.584277 -0.19663867
0.142149 0.6354216 0.4868433 0.37790427 0.619733 0.4284763 -0.12765591 0.5056669
0.5418218 0.5227017 -0.09344146 0.45447668 0.40430683 -0.16318645 0.5793943 -0.018105349
-0.31450024 -0.062671326 -0.33214566 -0.31087258 0.108146094 0.5786803 -0.056157555 0.2431715
0.73378533 0.36916032 0.56770986 0.424512 0.6849245 -0.17161672 0.363071 0.5720182
0.4526497 0.3777224 0.47189564 0.44725767 0.44871968 -0.28069073 0.3149373 0.014614779
0.43657553 0.5416895 0.69862336 0.7419752 -0.190012 -0.57139343 -0.20432048 0.044519335
-0.26399165 0.035222847 0.44460684 0.00020384004 0.43719077 0.34229425 0.4506813 -0.10000746
-0.2972139 0.29106605 0.15127838 -0.14582206 -0.25484234 -0.18682769 -0.44482678 -0.060701653
0.3070996 -0.10880439 -0.24028255 -0.3208229 0.30081618 -0.0614709 -0.1479408 0.4077133
-0.19409725 -0.105141506 0.42488176 0.43359533 0.60237795 0.6140647 0.2140095 -0.06896907
0.46202183 -0.31592473 -0.081373595 -0.22178505 0.079832494 -0.36380956 -0.22165191 0.2115328
-0.29922387 -0.21283181 -0.16328779 -0.27412325 -0.5428984 -0.16465683 -0.13667783 0.3475897
0.029270492 -0.23715606 -0.10889039 -0.12038494 -0.2766037 -0.3195824 0.2091512 0.90115726
0.38911086 0.23830856 0.35804528 -0.28610322 -0.028766539 -0.17522049 -0.0766995 0.122693144
0.4917343 -0.18121874 -0.53689516 0.05247561 0.05580333 0.15534122 0.007650968 -0.4835221
-0.44805723 -0.5744076 0.1321386 0.42859587 0.20828596 0.39460713 0.26529378 -0.22140609
0.4037423 0.217771 0.022554211 0.5744788 0.2780972 0.39598903 0.14110056 0.1276308
00000000: 776a 0e3f d000 9dbe ccac d33e b8c2 ae3e
00000010: c125 c73e 29d8 11bf e633 f33e c29d c03e
00000020: 1fad dc3e 6db0 f33e fc9e 883e 1889 93be
00000030: e323 cc3e 5d57 d1be f225 9c3d 2d5d 1bbe
00000040: d310 36be 4143 863e 73de 11bf 0e92 0e3f
00000050: 7f02 a63e 029d e53e 2b18 953e 5cff bb3e
00000060: 1df3 203e 2bf1 94bc a1e6 db3d 8f0a 203f
00000070: e82d d3be 2c59 ee3e 75ee 09bf eb0b f5be
00000080: aa7a a3be d07c f23e ce28 023f bb64 38be
00000090: 056d 0ebe 00df f33e 38b9 f33e ac9e 063f
000000a0: 9e4e 0b3f fd01 6c3e f5d2 b7be 526c 133f
000000b0: 7384 93be 665a 26be 3801 943e 2fbd 9bbd
000000c0: 1952 173e ee91 8d3f ed1c eb3e 20d7 cd3e
000000d0: 7adb 733e 4532 293f 415f 8abe 10cf 173f
000000e0: b525 fd3e 43a9 043f 2b2d 193e 099c cc3e
000000f0: caa2 adbe 7a4c 203e 0c62 d7bd 3c0c 2e3f
00000100: 3588 37be 7dd6 82be 6ffe 04bf 4170 04be
00000110: 4a78 763c 764e 31be 26e0 a2be 41c4 8fbe
00000120: c168 973d b0b4 453e 54c8 33bd 31c4 1c3e
00000130: db46 243f 35f7 7cbe 6cd5 083e be66 c63e
00000140: 10c0 a33d f390 023e 4587 513e 9f38 3abe
00000150: fbd9 753e 690d 47be 57a7 8a3e db80 1bbe
00000160: 7f6d b13e e0ff 263f 3339 5fbe 6dce 1cbd
00000170: dcce b8be 7d98 c03d fb32 7fbd ec60 56be
00000180: 1c6a c9be 38a9 26be 0b63 4cbe 8307 103e
00000190: 86ec 1c3f a759 94be a40d 32be 51e0 953e
000001a0: 273d a1be eb78 993e 7067 9b3e 15b3 2c3f
000001b0: 3622 643e 095b 783e 4c0a 6e3e 0d28 d2be
000001c0: e623 61bb e567 84be 35b2 70bd 36af 713e
000001d0: ee37 7cbe 0020 f93e 2d93 153f a65b 49be
000001e0: 828f 113e fdaa 223f 8643 f93e ab7c c13e
000001f0: d2a6 1e3f 3f61 db3e 3bb8 02be 6373 013f
00000200: d5b4 0a3f c7cf 053f 3c5e bfbd 2bb1 e83e
00000210: 4e01 cf3e 591a 27be 2f53 143f ab51 94bc
00000220: 2d06 a1be d359 80bd ff0e aabe b12a 9fbe
00000230: b37b dd3d 6424 143f 7705 66bd f301 793e
00000240: 5bd9 3b3f 9502 bd3e 6f55 113f a359 d93e
00000250: 3657 2f3f 4bbc 2fbe 71e4 b93e c96f 123f
00000260: b4c1 e73e d564 c13e 4e9c f13e f5fe e43e
00000270: 96be e53e b2b6 8fbe 763f a13e d372 6f3c
00000280: d486 df3e 2aac 0a3f fbd8 323f 16f2 3d3f
00000290: 8192 42be d746 12bf 6339 51be e859 363d
000002a0: ea29 87be d545 103d 82a3 e33e e5bd 5539
000002b0: 78d7 df3e 3141 af3e b3bf e63e b6d0 ccbd
000002c0: 6c2c 98be 9c06 953e b8e8 1a3e 6152 15be
000002d0: b27a 82be c24f 3fbe 56c0 e3be 4ca2 78bd
000002e0: 293c 9d3e d6d4 debd a10c 76be e642 a4be
000002f0: 9404 9a3e e9c8 7bbd cb7d 17be ccbf d03e
00000300: 6ec1 46be 6e54 d7bd 1a8a d93e 3500 de3e
00000310: 7135 1a3f 5833 1d3f 4e25 5b3e a83f 8dbd
00000320: 208e ec3e e3c0 a1be 33a7 a6bd 9f1b 63be
00000330: 387f a33d 3f45 babe b8f8 62be 0e9c 583e
00000340: df33 99be 95f0 59be ea34 27be e259 8cbe
00000350: 64fb 0abf cd9b 28be 46f5 0bbe 47f7 b13e
00000360: acc8 ef3c 0ad9 72be ed01 dfbd 618c f6bd
00000370: 009f 8dbe 4ea0 a3be bb2b 563e 3eb2 663f
00000380: 8a39 c73e 2907 743e b651 b73e 1f7c 92be
00000390: cea7 ebbc 006d 33be a114 9dbd 8b46 fb3d
000003a0: 99c4 fb3e 6891 39be f671 09bf aaf0 563d
000003b0: 0892 643d c511 1f3e f9b4 fa3b 3590 f7be
000003c0: c267 e5be 600c 13bf 574f 073e eb70 db3e
000003d0: ea48 553e f209 ca3e 96d4 873e 47b8 62be
000003e0: 50b7 ce3e 5cff 5e3e 9cc3 b83c 0b11 133f
000003f0: c262 8e3e 13bf ca3e aa7c 103e a6b1 023e

l1.bias f4 [8]
0.56970185 0.78228366 0.51331294 0.71388096 0.6653512 0.6512286 0.5139864 0.741171
00000000: fbd7 113f be43 483f 7a68 033f e7c0 363f
00000010: 7554 2a3f ebb6 263f 9d94 033f 62bd 3d3f

l2.weight f4 [8, 8]
0.25974646 0.16196392 -0.07451277 0.0014790662 -0.2235488 -0.30724654 -0.16581535 -0.28886062
-0.30707708 0.06117181 -0.14756075 -0.05630947 0.21423285 0.036506508 -0.1045925 -0.21990779
1.1042569 -1.2841324 0.82223713 -1.0052395 0.94952685 -0.148035 -0.3244357 0.5640105
0.62991786 -0.09351149 0.7761521 0.110083096 -0.47656024 1.3123493 -0.8415101 -0.16186197
-0.15030189 0.4923243 -0.702454 0.6541487 0.16287905 0.66990167 -0.801876 1.0027324
1.1747397 1.2386323 -0.9074715 0.84798443 1.0586878 -0.39037237 1.0897671 -0.2863352
-1.235209 0.9027122 0.8679313 -0.4241946 0.19870697 -0.032186273 0.35026255 0.83035094
0.5193801 0.073975354 -0.6085596 0.6259653 0.18172765 0.744795 -1.1874397 1.035712
00000000: 7dfd 843e dfd9 253e 279a 98bd 3add c13a
00000010: fae9 64be 6b4f 9dbe 80cb 29be 8ae5 93be
00000020: 3539 9dbe 4b8f 7a3d 2a1a 17be c2a4 66bd
00000030: db5f 5b3e d987 153d 9834 d6bd 822f 61be
00000040: 4a58 8d3f 735e a4bf 227e 523f b0ab 80bf
00000050: 3114 733f 7d96 17be 701c a6be fe62 103f
00000060: 4c42 213f f482 bfbd e7b1 463f 3f73 e13d
00000070: b4ff f3be 10fb a73f 356d 57bf 25bf 25be
00000080: bde8 19be ee11 fc3e 06d4 33bf 4a76 273f
00000090: c4c9 263e ad7e 2b3f bf47 4dbf 8959 803f
000000a0: df5d 963f 818b 9e3f 0d50 68bf 8215 593f
000000b0: 1583 873f e3de c7be 7d7d 8b3f 879a 92be
000000c0: 541b 9ebf 2618 673f bf30 5e3f 0930 d9be
000000d0: d779 4b3e c1d5 03bd 9d55 b33e e191 543f
000000e0: 18f6 043f 6480 973d 90ca 1bbf 433f 203f
000000f0: d016 3a3e e3aa 3e3f 06fe 97bf 3692 843f

l2.bias f4 [8]
-0.3454461 -0.11152311 0.37726742 0.4805377 0.13153256 0.45716086 0.71214074 -0.14032218
00000000: 50de b0be 3a66 e4bd 3229 c13e 0a09 f63e
00000010: 79b0 063e fd10 ea3e db4e 363f 9eb0 0fbe

l3.weight f4 [7, 8]
0.26239258 0.17711042 0.513851 -0.73322475 -1.2700374 -1.1977884 0.35490292 -1.0797915
0.27181685 0.15453926 -1.3377962 0.82791185 -0.39514628 -1.0899432 0.13307978 -1.1294904
-0.17687325 0.023262972 -1.3585017 -1.1126107 0.17241046 0.15582213 0.7803243 -0.7984383
0.201102 0.11820633 -0.99441385 0.038555764 0.864568 0.13733648 -1.1132305 0.79187423
-0.15837848 0.17818743 0.37099594 -0.19080935 -0.96026206 0.28739563 -1.2763882 -1.3320059
0.35233554 -0.3099577 0.24146453 0.7153045 -0.94416195 -0.8585881 -1.3562317 0.13573176
-0.16779184 -0.21889682 -1.386764 -1.0785949 -0.23998839 1.0172826 -1.5581717 -0.33651948
00000000: 5258 863e 6f5c 353e bd8b 033f 9eb4 3bbf
00000010: 9690 a2bf 2151 99bf d6b5 b53e 9c36 8abf
00000020: 942b 8b3e 8a3f 1e3e e83c abbf 08f2 533f
00000030: 9d50 cabe 4283 8bbf 1146 083e 2493 90bf
00000040: 431e 35be fd91 be3c 62e3 adbf 076a 8ebf
00000050: 5e8c 303e d68f 1f3e 55c3 473f 7466 4cbf
00000060: afed 4d3e 2916 f23d e891 7ebf a6ec 1d3d
00000070: 5454 5d3f efa1 0c3e 567e 8ebf 45b8 4a3f
00000080: f82d 22be c476 363e 2ef3 bd3e 8763 43be
00000090: bcd3 75bf 8525 933e b060 a3bf 2b7f aabf
000000a0: 5365 b43e c7b2 9ebe 7a42 773e 321e 373f
000000b0: 99b4 71bf 6ecc 5bbf 0099 adbf 44fd 0a3e
000000c0: a0d1 2bbe 7d26 60be 7c81 b1bf 660f 8abf
000000d0: 84bf 75be 5136 823f 2c72 c7bf 484c acbe

l3.bias f4 [7]
-0.20455012 0.088489294 0.019418681 0.13998915 0.02024942 0.057363775 0.29231068
00000000: 9675 51be e039 b53d ed13 9f3c 5159 0f3e
00000010: 1de2 a53c 47f6 6a3d bfa9 953e
