chatbot/data.pth (torch, 5535 bytes, 6 tensors)

l1.weight f4 [8, 58]
000000 2f 8d de bc 3b ec ae 3e ae 49 9a 3e eb 16 27 3b
       -0.027166931 0.34164605 0.30134338 0.0025495838
000010 4e f2 bd 3d 63 74 be 3e 13 e1 5f 3e 6d b9 c2 3e
       0.092747316 0.3719817 0.21863203 0.38032094
000020 3a 72 48 3f bc 97 89 3e 31 1e 23 3d 34 3e 73 be
       0.78299296 0.26873577 0.039823715 -0.23754197
000030 25 c5 3d 3f 36 02 ec bc ba 14 17 3e 72 52 01 3f
       0.74128944 -0.028809648 0.14754 0.50516427
000040 99 5d 80 be cf 34 29 be 10 a4 c1 3e c1 f4 18 3f
       -0.2507141 -0.16524051 0.37820482 0.59748465
000050 83 09 a1 be 8f 74 af 3c 5e 0f a2 be 8b 4c 82 be
       -0.3145257 0.021417884 -0.3165235 -0.25449023
000060 36 88 39 bf 74 f0 7d be 44 34 0b be 3b 64 2c 3f
       -0.72473466 -0.24798757 -0.13594157 0.6734044
000070 2f 6d b4 3e 61 35 15 3f f7 2a d1 3d b7 1b 31 3d
       0.3523955 0.58284575 0.10213273 0.04323932
000080 40 a7 d6 bd 8f 16 96 3c ed 24 cb 3e 82 04 64 3f
       -0.10481119 0.018321304 0.3967661 0.8906938
000090 8e f6 8a be 34 39 fe 3e e3 2e 33 3f f1 bb e7 3e
       -0.2714123 0.49653018 0.6999342 0.45260575
0000a0 f7 8a 68 3e 1f 72 11 bc d4 4b b5 bc 96 6f 31 3f
       0.22709261 -0.008877306 -0.022130884 0.6931089
0000b0 f6 cd aa bd 71 3a 35 3f 87 85 a3 3e 7f ea 56 3f
       -0.08340065 0.707923 0.3193781 0.8395156
0000c0 77 40 5a bd 3c b1 40 be 5e 15 de bc 94 08 8f 3e
       -0.053284135 -0.1881761 -0.027109798 0.27936232
0000d0 0a 0d 84 3d a5 d3 56 3f d8 80 b3 be 91 e4 da 3e
       0.064477995 0.83916694 -0.35059237 0.42752507
0000e0 9f 1c d1 3e 32 57 04 3f 8e cc 81 be 06 55 8e be
       0.4084215 0.5169555 -0.25351375 -0.27799243
0000f0 0f ef cc bd 8e a1 b1 be 06 53 cf bd f3 5e 8b 3f
       -0.10006534 -0.3469357 -0.10123257 1.0888351
000100 b9 17 3a 3e 33 76 a6 bc f6 97 26 3f 84 76 76 bd
       0.18173112 -0.020320034 0.65075624 -0.06017162
000110 71 91 a2 bd 13 81 98 be 14 9b 0b 3f a4 3b d3 bc
       -0.07937897 -0.29785976 0.54533505 -0.025785275
000120 e2 a8 26 be 33 4e 1f be 76 d6 5a be c4 0d 81 be
       -0.16275361 -0.15557174 -0.21370873 -0.25205815
000130 6e 00 8a 3f 2a 04 a7 3e 57 13 c3 be a2 dc 00 be
       1.0781381 0.32620364 -0.38100693 -0.12584165
000140 40 f8 c6 be 2a cd b1 be ee fa 07 bf 53 90 50 be
       -0.38861275 -0.3472684 -0.53117263 -0.20367555
000150 dc 19 8e be f9 16 27 3f 06 26 ac be 9f db a1 3e
       -0.27754104 0.6526943 -0.3362276 0.3161287
000160 47 15 c5 be 58 c6 72 3f d4 85 96 bd 7e e1 04 bd
       -0.38492796 0.948339 -0.073497444 -0.03244161
000170 e8 65 5e be d3 de 01 be c5 83 5a be 28 86 09 3f
       -0.21718562 -0.12682657 -0.21339329 0.5372033
000180 3e d4 00 3f 75 cb 1a 3e 79 a9 87 3e cb c8 4e be
       0.50323856 0.15116675 0.26496485 -0.20193784
000190 3d af 22 3f 6b bc 1a 3f 01 14 b0 3d 2f ec 1d be
       0.6354864 0.60443753 0.085975654 -0.15422128
0001a0 cd 1e 43 3d f1 e1 22 be 54 cb 3c be 34 af ed be
       0.047636796 -0.15906502 -0.18436939 -0.46422732
0001b0 56 00 f0 bd 83 cb a7 3e 85 ed b0 be be c9 4d 3f
       -0.11718814 0.32772455 -0.34556213 0.8038596
0001c0 02 ae ea bd d2 ee a9 3e 3d 93 8d 3e 66 e5 75 3e
       -0.114589706 0.33190018 0.27651396 0.2401329
0001d0 76 be 70 3e 21 21 a6 be 1c fe 0f 3f bb 93 d6 3c
       0.23510155 -0.3244715 0.56247115 0.02619349
0001e0 0e 46 69 be 22 84 91 be ab 81 2e 3f 4e a3 f8 3e
       -0.2278063 -0.28421122 0.6816661 0.48562092
0001f0 2d 74 2f 3f 81 ce de 3e 32 07 2f 3e d2 71 38 3f
       0.68536645 0.43516925 0.17092589 0.72048676
000200 e1 61 cf 3e 2d 68 6a 3f e6 60 25 3e 7d 58 2f be
       0.40504363 0.9156521 0.16150245 -0.171236
000210 57 63 04 3f ad af aa 3d f2 c9 8c be 77 bb 9f bd
       0.5171408 0.08334289 -0.27497822 -0.07799428
000220 6d 01 37 3d 38 66 05 3e c8 d0 9a 3d 4f ec 80 3d
       0.044679094 0.13027275 0.07559353 0.06295072
000230 55 9f 00 3f c2 8e 2c 3f 93 a5 cd bc 9e 4d 91 3e
       0.5024312 0.6740533 -0.025103366 0.2837953
000240 43 d4 00 bf 91 4e cc 3e e8 b2 00 bf 26 61 81 be
       -0.50323886 0.3990369 -0.5027299 -0.2526943
000250 cb 38 3a 3f 2a 7e 15 3e 75 d5 15 3f 4a 0e 96 be
       0.7274291 0.14598909 0.58528835 -0.29307777
000260 36 9f 08 3f 65 5d ce 3e e0 60 19 3f 04 58 01 3f
       0.53367937 0.4030563 0.59913445 0.50524926
000270 b4 79 36 3f 10 0c 66 3e 01 e8 29 bd 97 a4 1c 3e
       0.71279454 0.22465539 -0.04148102 0.15297161
000280 32 87 23 3f fb f3 78 be 86 01 72 3f 5a ec d0 bd
       0.63878167 -0.24311821 0.94533575 -0.102013305
000290 f6 f7 37 3e 2a ac 44 3f 0f f4 65 3d 23 22 41 3e
       0.17965683 0.768252 0.056140956 0.18860678
0002a0 59 63 44 3e f2 ec 85 3e 7c 6a bd 3e 96 86 49 bd
       0.19178523 0.26157337 0.36995304 -0.049200617
0002b0 04 0d 28 3f d8 1f ed 3d d4 fc 1d 3f 38 e3 17 be
       0.6564486 0.11578339 0.6171391 -0.14832771
0002c0 c1 25 00 3f d5 68 37 3d e6 87 97 be a4 11 01 bf
       0.5005761 0.04477771 -0.2959587 -0.5041754
0002d0 05 2f 0b 3e 0c 6e ec 3e 15 0f b1 3e eb 9b b9 3e
       0.13592155 0.4617771 0.3458182 0.36251768
0002e0 e8 5b 25 3d d5 3d 13 3f ba 78 8e 3e 9c b4 10 3f
       0.04037085 0.57516223 0.27826482 0.5652559
0002f0 da 14 01 3e c5 aa 12 be 08 ea b5 3e 0e bc a2 bd
       0.1260561 -0.14322956 0.35530114 -0.07946025
000300 ae 67 02 bf ef 01 e0 bd 4a e6 9a 3d 44 f5 20 3f
       -0.5093945 -0.10937869 0.075634554 0.62874246
000310 e2 9f 24 3d 03 b1 f7 3c e2 9d a1 3e 4f c6 fb 3e
       0.04019154 0.030235773 0.31565768 0.49174735
000320 96 a0 0a 3b 94 f8 a9 3d db e7 b0 be a0 74 b3 3e
       0.0021152846 0.08299366 -0.34551892 0.35049915
000330 80 1f e1 be fd 08 e5 be 3b ec 0f 3f ce 7a ef 3e
       -0.43969345 -0.4473342 0.56219834 0.4677338
000340 9a 0b 1f 3f dd ed 0e be c7 28 fe 3e 1c c0 8c 3e
       0.6212708 -0.13957925 0.49640486 0.27490318
000350 9b ee 9a 3e d9 92 16 3d e0 bf 4a 3d dc 7a 96 3e
       0.30260167 0.03676114 0.049499393 0.2939061
000360 eb 21 54 be 63 2c d0 bd 02 cb f5 3e 79 c0 92 bd
       -0.20716064 -0.10164716 0.48006445 -0.071656175
000370 77 10 04 3f 94 be 1e be dd 47 10 3e 16 5a 97 3f
       0.51587623 -0.15502387 0.14089914 1.1824367
000380 38 4f 25 3f cb 46 d7 bd 7d bf 20 3e 92 a4 07 be
       0.64574003 -0.105115496 0.15698047 -0.13246372
000390 7f 7a da 3e c7 f6 96 3d 3d 8a 75 3e 6b 56 15 3e
       0.42671582 0.07371288 0.23978515 0.14583747
0003a0 f3 49 a1 be 14 0e 0e 3f a3 fb c1 3e 5f ca d9 3e
       -0.3150173 0.5549023 0.37887296 0.4253721
0003b0 19 45 d0 3e 48 f8 6a 3f 4c d8 ee 3e fd 62 b4 3e
       0.40677717 0.917851 0.46649396 0.35231772
0003c0 84 a5 67 be ad e9 a9 3e 17 82 c9 3e ea 07 a6 be
       -0.22621733 0.33186093 0.39357063 -0.32427913
0003d0 d6 bf 02 3e bd ef e4 be e8 25 a8 3e a3 1e 06 3f
       0.12768492 -0.44714156 0.3284142 0.523905
0003e0 55 bf 8b be 5d 5c d1 3e d5 9d 6a 3f b9 df c1 be
       -0.27294412 0.4089078 0.9164708 -0.37866
0003f0 19 5f 12 3f ac b1 c3 be db 2a 0e 3f da 72 1b 3f
       0.5717636 -0.3822149 0.5553414 0.60722125

l1.bias f4 [8]
000000 33 b4 1d 3f 89 47 fe 3e 45 36 4f 3f d2 69 02 3f
       0.6160309 0.49663952 0.80942184 0.5094272
000010 82 b8 80 3f dd b5 05 be 6b a3 34 3f f4 30 81 3f
       1.0056307 -0.13057657 0.70561856 1.0093064

l2.weight f4 [8, 8]
000000 ee 47 85 3f 60 16 32 3f 69 c4 7b 3f 6b 48 a9 3f
       1.0412576 0.6956539 0.98346573 1.3225225
000010 01 de a6 bf 5c fd d2 bd 94 57 d1 bd e5 92 80 3e
       -1.30365 -0.10302231 -0.10221782 0.25112072
000020 02 01 a8 be c7 94 9c be 7a 5b 87 3f 4e 60 2c 3f
       -0.3281327 -0.30582258 1.0574791 0.6733445
000030 68 0e f8 3d 0e 79 4d be 13 e5 95 bf a7 c0 96 be
       0.12112123 -0.2006571 -1.1710533 -0.29443857
000040 a1 a4 87 3e 31 63 ab be 48 12 4a 3e 19 0c 4a be
       0.2649279 -0.33474115 0.19733536 -0.19731177
000050 69 ba bf bd 79 ad 84 3e 24 1f 59 3e fb db c0 be
       -0.09361727 0.259136 0.21203285 -0.37667832
000060 0e 71 82 bf 38 d5 92 bf 27 b2 ca 3e 1e cb 7d 3f
       -1.0190752 -1.1471319 0.39589044 0.9913806
000070 76 30 8c bf e1 9c 13 3e 94 c9 b0 3e f8 6d 8d 3f
       -1.0952289 0.14415313 0.34528792 1.1049185
000080 33 70 aa 3f d2 ab d5 3f 74 7d aa 3e a1 05 dc be
       1.331549 1.669306 0.33298838 -0.42973045
000090 d5 4b 77 3f 16 c0 41 3e 07 c9 85 bf 9a 3b 7c 3e
       0.96600085 0.18920931 -1.0451974 0.24632111
0000a0 d7 a0 d0 bc 04 68 7a bf d8 eb 79 3f 65 89 9a 3f
       -0.02546732 -0.97814965 0.97625494 1.207318
0000b0 02 50 01 3e 5e 90 68 be bb b2 cf 3f c2 1d b1 3f
       0.12628177 -0.22711322 1.6226419 1.3837206
0000c0 86 08 77 be 6c ba ed bd 48 98 71 bd b0 05 b8 bd
       -0.24124345 -0.11607823 -0.058983117 -0.0898546
0000d0 be d3 07 3e 5c 16 bf bd 32 d9 8b be 0b db a5 be
       0.13264367 -0.093304366 -0.27314144 -0.3239368
0000e0 77 67 87 3f 7a da 29 bf 56 79 88 bf 1a 5f 3c bf
       1.057845 -0.66348994 -1.0662029 -0.73582613
0000f0 d9 64 19 3e 68 ae e8 3d 06 32 ba be b6 73 4d 3f
       0.14979877 0.1136139 -0.3636629 0.80254686

l2.bias f4 [8]
000000 45 30 68 be c3 2a 18 be 52 7f bb be c4 16 7d 3e
       -0.22674663 -0.14860062 -0.36620575 0.24715716
000010 09 1b 58 3f 80 2c c3 3e cc e5 6e be 2e 5b fc 3c
       0.8441625 0.38119888 -0.23329848 0.030805197

l3.weight f4 [7, 8]
000000 43 2a f1 3e 94 ee 54 3f 71 9c 11 3e 88 ab c1 3e
       0.47102556 0.8317654 0.14219834 0.3782618
000010 ce 4f bc bf f5 04 a6 bd 6d 36 8f be b8 2c ad be
       -1.4711854 -0.08106414 -0.2797121 -0.3382318
000020 4e 3c 94 bf aa e8 5c bf ae 03 a9 be 0f 3c 2a bf
       -1.1580904 -0.8629252 -0.3301062 -0.6649789
000030 ff 17 ba 3d 14 21 b8 be 14 8c 8b bd 6f ce 4f 3f
       0.09086608 -0.35962737 -0.06813827 0.8117437
000040 91 18 a6 bf 3f 51 08 bf a4 10 5d 3e fa 26 3e bf
       -1.2976247 -0.5324897 0.21588379 -0.74278224
000050 38 89 6b 3f aa ce b1 bf f4 b3 d0 bd 49 ff c2 bf
       0.92006254 -1.3891194 -0.10190573 -1.5234157
000060 77 3e fa bf 4f 9c 8c bf c0 12 10 3e 40 89 14 3e
       -1.9550313 -1.0985202 0.14069653 0.14505482
000070 da ec 39 bf 2a 55 83 3f 93 99 87 3e 27 95 44 bf
       -0.7262703 1.0260365 0.26484355 -0.7679009
000080 cd 86 67 3f 07 80 6a bf ba f6 4d 3e 3b d0 80 bf
       0.90440065 -0.91601604 0.2011365 -1.0063547
000090 e1 21 44 3d e8 0c ad bf 4d 80 88 be a9 82 51 bf
       0.047883872 -1.3519564 -0.26660386 -0.81839997
0000a0 9d 95 d4 3e 20 37 ad 3e aa a6 29 be b5 96 95 bf
       0.41520396 0.3383112 -0.16567484 -1.1686617
0000b0 27 75 0b bf b9 0c 24 3e 28 75 94 be a6 1b 58 3d
       -0.54475635 0.16020478 -0.28995633 0.052760743
0000c0 6a 0e 06 3f a6 bd d2 bf 88 ac af be dd dd 5a 3f
       0.52365744 -1.6464126 -0.34311318 0.85494787
0000d0 20 6b f4 bf 6e 6a b9 3e ec 2e 9b 3d a4 71 7f bf
       -1.9095192 0.36214012 0.07577309 -0.99782777

l3.bias f4 [7]
000000 ea a1 62 bf b7 0d 84 3e 4f 0f d1 3e a8 e4 5a 3f
       -0.8852831 0.25791714 0.40831992 0.8550515
000010 87 00 f0 be 99 52 0a be dd 6c 93 be
       -0.46875402 -0.13508071 -0.28793994
